models/checkpoints/mosNet/0/_checkpoint.pth.tar (torch_old, 348291 bytes, 68 tensors)

conv1.0.weight f4 [8, 3, 3, 3]
000000 7a b7 23 be 2f a6 c2 3d a1 12 dc bd 0c f9 00 3e
       -0.1598796 0.09504353 -0.10745741 0.12595004
000010 73 74 ec 3d 9d fc 07 3e d5 48 cc 3d f5 77 00 bd
       0.115456484 0.13279958 0.09974829 -0.0313644
000020 77 96 b5 3d 41 8e 0b 3d d2 ae ad 3d 4f c7 ca 3c
       0.088665895 0.03407121 0.0848061 0.02475324
000030 d8 4c c7 3d 23 a5 bf bc 20 e1 1c bd 15 78 07 be
       0.09731454 -0.023394173 -0.038300633 -0.13229401
000040 57 a4 4a be e7 d9 0e be d1 ad 5d 3d 0b fc 2e 3e
       -0.19789253 -0.1395031 0.054120842 0.17088334
000050 e7 1d e2 bc 58 c4 16 3e a5 18 96 3d 99 e9 be 3d
       -0.02760215 0.14723337 0.07328919 0.09321899
000060 e9 f9 c7 3d b2 7b 09 3e 5a 5e 5a 3d 00 dc 3c 3e
       0.097644635 0.13426092 0.053312637 0.18443298
000070 e4 9d 1b 3e d0 28 9c bd de ae 46 3e 05 19 98 3d
       0.15196949 -0.07624972 0.19402644 0.07426647
000080 80 c2 46 3d 8f 77 a2 bc 58 70 d4 bd 8d fa 3e 3e
       0.048525333 -0.0198324 -0.1037299 0.18650265
000090 19 62 e3 bc b3 2c bc bc ad 46 47 bc 8c 6b 6c 3d
       -0.027756738 -0.022970533 -0.0121628465 0.057719752
0000a0 f6 7a 7b 3c 89 3a 2c bc 68 df b9 bd 2c e8 f1 3c
       0.01534914 -0.010512003 -0.090758145 0.029529653
0000b0 8f 44 12 3e 26 a8 54 bd 51 41 21 bd 6b b2 0e be
       0.14283966 -0.05191817 -0.03936893 -0.13935249
0000c0 9e 7e 74 be 25 79 53 bd f8 04 56 bd 0f cb 8f 3d
       -0.23876426 -0.051629204 -0.052250832 0.07021152
0000d0 14 8d 28 be a6 ce 99 3d f3 1c 64 bd f8 27 38 bd
       -0.16460067 0.07510118 -0.05569167 -0.044959992
0000e0 52 7b 0f 3d 69 2f 81 bd a4 06 98 bd 2b d2 8c 3d
       0.035029717 -0.06307871 -0.074231416 0.06876024
0000f0 30 9f d1 3d 44 ab 8a 3d 96 8e 67 bd ce 21 2d bc
       0.10235441 0.067709476 -0.056532465 -0.010567142
000100 4e f5 1e be 9c f5 4b bc 04 db 84 bd 8b ef 35 3e
       -0.15523264 -0.012448695 -0.064870864 0.1776716
000110 00 50 0a bd 1a aa 7c bd 98 cd 23 3e e1 8e 64 3d
       -0.0337677 -0.06168566 0.15996397 0.055800322
000120 fb e2 39 bd 6a c5 44 be 5a 88 df bd 44 20 ad 3b
       -0.04538248 -0.19215932 -0.10914679 0.0052833874
000130 dd 3b f9 bc 3e 90 59 3c f5 cb 26 bd 45 70 33 3e
       -0.030424053 0.013279019 -0.040721852 0.17523296
000140 05 df db 3d 34 2e 92 bd 6a e7 5b bd 35 ac 20 3e
       0.10735897 -0.07137719 -0.05368749 0.15690692
000150 1d 9a f5 3d 35 fc 1b 3e 1b a3 19 bd d8 0b aa bc
       0.119922854 0.15232928 -0.037509065 -0.0207576
000160 b4 cf 3a 3d 33 47 4f be a1 f3 1a 3d 62 d1 18 bd
       0.045608237 -0.20242004 0.03783 -0.037309058
000170 d2 f1 41 be 2b 76 4a be 3a 6a d0 bd 71 d8 21 3d
       -0.18939903 -0.1977164 -0.10176511 0.039513055
000180 fc d8 e2 bd 1b a6 77 3d ce b8 86 3c 90 ba c5 bc
       -0.11076543 0.060461145 0.016445544 -0.024136811
000190 9e fa 4b be c4 2b 82 bc f8 04 78 3c 5c 83 c6 3d
       -0.19919822 -0.01589001 0.015137903 0.096930236
0001a0 e5 d2 be bb b9 ee 35 3c 17 34 09 bc bc 74 14 be
       -0.0058234804 0.011104279 -0.008374236 -0.14497656
0001b0 43 d4 db 3d 07 f4 80 3d d9 48 94 bd 73 ae 04 3e
       0.10733845 0.062965445 -0.07240457 0.12957172
0001c0 67 cc 04 3d 41 7f 1e be 47 66 24 be 01 aa 85 bd
       0.032421496 -0.15478231 -0.1605464 -0.06526566
0001d0 07 f1 4e 3e 7d 96 55 3d 5f a2 36 3d eb 80 f4 bd
       0.20209132 0.05214547 0.044588443 -0.11938652
0001e0 d4 6c 93 bd e5 77 15 3e f1 26 72 3d 9a f2 bc 3c
       -0.07198492 0.14596517 0.05911917 0.0230649
0001f0 ff 91 cf bd 47 54 16 bc 83 0f 02 3d 26 80 e6 bd
       -0.101352684 -0.009175367 0.031753074 -0.11254911
000200 06 7f f7 3b fe 5a bc 3d 1f fe 35 3e df cf 0a be
       0.007552984 0.09197043 0.17772721 -0.13555859
000210 31 7c 1e be bf b2 d1 bd bf ea 46 3e 7b 01 43 be
       -0.15477063 -0.10239171 0.19425486 -0.19043534
000220 21 60 40 be 1b 92 12 be 7d 76 f2 bc 49 1c 0c be
       -0.1878667 -0.14313547 -0.029597515 -0.13682665
000230 39 b2 f7 3d b2 1d 61 3e 65 64 08 3e e5 c5 fd bd
       0.1209454 0.21983984 0.13319547 -0.12391261
000240 55 a8 f3 bc 3d 59 92 bd 24 ac 9d ba 78 b9 46 3c
       -0.029743353 -0.07145927 -0.0012029451 0.01212918
000250 57 e9 d9 bd ba 09 86 3d 35 82 6a bd bc 33 28 3e
       -0.10640209 0.06544824 -0.05725308 0.16425985
000260 9c e8 12 be ef 4f 1f bd 68 84 a3 3d 53 da b3 3d
       -0.14346546 -0.03889459 0.07984239 0.087818764
000270 6a f4 8d bd c1 18 c7 3c 19 ce 9c bd 4c ba be 3d
       -0.06931384 0.024303796 -0.076564975 0.09312877
000280 de 8b 95 3d 84 c5 36 be ae 42 d4 bd 7b 89 a5 3d
       0.07302068 -0.17848784 -0.10364281 0.08082863
000290 12 28 02 bd a3 43 00 bd b8 b2 9e 3d 24 4e cf bd
       -0.031776495 -0.031314503 0.07748932 -0.10122326
0002a0 37 88 27 3e 18 a0 a4 bd 5d ee 1c 3e 7b be db 3d
       0.16360556 -0.08038348 0.15325303 0.10729691
0002b0 f8 bf 0f 3e bb 7b 5c 3d 1d 2c 3f 3e f0 d3 1e be
       0.14038074 0.053828936 0.18669172 -0.15510535
0002c0 62 d9 28 be 36 9c 13 3e 0f 09 0e be d4 49 30 be
       -0.16489175 0.14415058 -0.13870643 -0.17215663
0002d0 09 09 2f 3d 0f b3 64 3c de a6 44 3e 0a e4 0c be
       0.042733226 0.0139587065 0.1920428 -0.13758865
0002e0 d6 ea ce 3d 0c 8d 1a bd 76 95 d0 3c 2b 07 41 be
       0.10103385 -0.03773217 0.025461894 -0.1885039
0002f0 20 07 56 be 0b c6 91 3d 24 09 58 3d ba d6 28 3e
       -0.20901155 0.07117852 0.052743092 0.16488162
000300 de 86 75 3d 35 24 3b bd 8e 01 3e 3e 84 4e 6e bd
       0.059943072 -0.045688827 0.1855528 -0.058180347
000310 bc 3c e3 3d 4e b4 ce 3d c7 f5 12 3e 76 e2 a3 bb
       0.110955685 0.10092984 0.14351569 -0.0050013615
000320 4d b8 f8 bd fc f9 17 3e 19 84 25 3d cd 17 13 3e
       -0.121445276 0.14841455 0.04040918 0.14364548
000330 71 69 4c 3e db 56 02 3e 30 0a fc 3c ee 98 fb 3d
       0.19962098 0.12728445 0.030766577 0.122850284
000340 72 4e a5 bd 1c 20 da 3d 6b dd 3a 3e 9d 12 35 3e
       -0.08071603 0.106506556 0.18248527 0.17682882
000350 ec 3c 81 3d 38 41 0a 3e c7 d8 24 3e 44 da 91 bd
       0.06310448 0.13501441 0.16098319 -0.07121709

conv1.0.bias f4 [8]
000000 42 43 ec bd 93 93 ed 3d 54 51 88 3d a2 85 11 3e
       -0.11536266 0.11600413 0.06656137 0.14211133
000010 4a 36 f4 3c 4b d3 ff 3d bf 7a 3f 3e be b9 83 3c
       0.029811043 0.12491473 0.18699168 0.01607978

conv1.2.weight f4 [8]
000000 e4 8a d8 3e cc 5e 31 3f 9a c0 68 3f 72 3a 01 3d
       0.42293465 0.69285274 0.90918887 0.03154988
000010 61 c0 44 3f ea 43 29 3f f9 11 0b 3f 86 7a ea 3e
       0.76856047 0.66119254 0.543243 0.45796603

conv1.2.bias f4 [8]
000000 44 a5 e7 3c 6a 71 a8 3c 89 42 94 bd 64 99 3f 3d
       0.028277047 0.020561893 -0.07239253 0.046777144
000010 e2 6a 28 bd 8a a4 dd 3b b6 ea 99 bd 5a e6 11 3e
       -0.041117556 0.0067639994 -0.07515471 0.14248028

conv1.2.running_mean f4 [8]
000000 76 c2 0b 3d 5e 5d 90 3e c5 80 cb 3d bd 2a d8 3e
       0.034121 0.28196234 0.0993667 0.42220107
000010 7a 45 f3 3c 76 a6 72 3e 7d f1 83 3e 46 ea 1c 3e
       0.029696215 0.23696312 0.25770178 0.15323743

conv1.2.running_var f4 [8]
000000 4b a3 34 3c 94 a5 f4 3c 18 b7 1d 3b 21 a1 65 3d
       0.01102526 0.02986411 0.0024065431 0.056061868
000010 27 4f 9c 3a 2e b2 1f 3d 5c a9 71 3b e3 62 f9 3d
       0.0011925445 0.038988285 0.0036874628 0.12177064

conv2.0.weight f4 [8, 8, 5, 5]
000000 84 3a 93 bd 81 50 17 bb bf c2 98 bd 5a 3a 97 bd
       -0.07188895 -0.0023088756 -0.0745902 -0.073841766
000010 b2 3c a8 bd ca 93 99 bc 01 e6 1a bd 20 ca e6 3a
       -0.08214702 -0.01874723 -0.037817005 0.0017607845
000020 73 5d d0 bc 52 c9 a1 3c 87 5d b4 bc 70 0e 83 bd
       -0.025435185 0.019749317 -0.022017254 -0.06399238
000030 84 3d a8 bd 93 49 45 bd ba 3f 4b bd 7f d4 18 3c
       -0.08214858 -0.04816587 -0.04962132 0.009328007
000040 6d 93 a4 bd 18 ca 2b bd df 6d f1 bc 0e 08 99 3c
       -0.08035932 -0.04194078 -0.029471336 0.018680599
000050 bf 37 42 bd 18 66 cf bc 06 f2 4f bc 0a 6f 6d 3d
       -0.047416445 -0.025317237 -0.01269198 0.057967223
000060 08 08 35 3d 7f 7a b1 bc 01 89 08 bd ea 06 e2 bd
       0.044197112 -0.021664856 -0.033333782 -0.11036475
000070 b1 a4 bb bd 7b 49 fc bd e2 3c d4 bd dd 98 1c 3d
       -0.09162272 -0.12318703 -0.10363175 0.03823172
000080 1f ae 80 bd ff c4 ed bc d5 c4 38 bd e8 77 75 bd
       -0.06283211 -0.0290246 -0.04510959 -0.059928805
000090 14 09 65 bd 3a 77 26 3d ba 2a 80 bd 1c e7 14 bc
       -0.05591686 0.040641047 -0.062581494 -0.009088304
0000a0 28 13 66 3d 2e 9c 8f 3d 67 0c ac 3d e3 d7 db 3d
       0.056170613 0.07012211 0.08400803 0.107345365
0000b0 47 59 f1 3c 51 b2 14 3d bf 22 94 3d 5e 1e ae 3c
       0.029461516 0.03630287 0.0723319 0.021254715
0000c0 d8 e4 d0 3d 42 19 02 3d f8 38 57 3d e0 41 65 bc
       0.101998985 0.03176237 0.052544564 -0.013992757
0000d0 0f 47 85 3a 9a 83 a6 bc 74 6d 4c 3d 49 bb e7 bc
       0.0010168272 -0.020326424 0.04990907 -0.028287547
0000e0 fc be 8f bd c3 35 97 bc 22 38 b8 3c 07 ee c6 3c
       -0.07018849 -0.018458253 0.022487704 0.024283422
0000f0 77 bd 06 3d 1e 50 eb 3c 69 f8 be bc 44 02 c7 bd
       0.03289553 0.028724726 -0.02331181 -0.09717229
000100 a2 d7 77 3b 7e 19 98 bd 43 e1 07 bd 8d 5f b9 bd
       0.0037817736 -0.07426737 -0.03317381 -0.09051428
000110 e5 93 e8 3d f8 3c 15 3e 10 68 3c 3d 3b 02 8d 3d
       0.11356334 0.14574039 0.04599768 0.06885191
000120 ba d2 77 3d 23 82 0b bd f6 27 19 be 19 26 b5 3c
       0.0605037 -0.034059655 -0.1495665 0.022112893
000130 d3 cc 72 bd f4 b8 52 3c 75 9c 0d 3d 5b eb 98 bd
       -0.059277367 0.012861479 0.034573037 -0.074667655
000140 ee 65 97 bd 10 02 48 3d 0f c5 13 3d 62 64 f3 bc
       -0.073924884 0.048830092 0.0360766 -0.029710952
000150 55 90 2f 3d 6b c7 e4 bc a5 2a af bc d3 28 05 bd
       0.042862255 -0.027927121 -0.02138264 -0.032509636
000160 3b 81 7d bd d0 be 22 bd e6 bb c1 bb 44 6c 28 bc
       -0.061890822 -0.039732754 -0.005912292 -0.010279719
000170 c0 8c 8d ba d7 74 fc bc b2 e6 6b 3d d0 d1 ea bb
       -0.0010799393 -0.030817432 0.057593055 -0.007166125
000180 55 f8 91 bd a0 42 2e 3d 93 9a 40 3c 1e 28 18 3d
       -0.07127444 0.042544007 0.011755603 0.037147634
000190 94 06 3e bd 8c 03 ca 3d 7f 5c ff 3a ac d8 a7 3c
       -0.046392992 0.09863958 0.0019482522 0.02048906
0001a0 60 56 40 3d 85 76 7c bd 65 10 94 3d 53 93 31 bd
       0.046957374 -0.061636467 0.072296895 -0.04335339
0001b0 53 41 f2 bb 1b 55 84 bc 6c 21 98 bd 91 d2 64 bd
       -0.007393041 -0.016153863 -0.0742825 -0.055864874
0001c0 e8 4f b0 bc af e2 93 3d c8 be 35 3c 81 24 90 bc
       -0.021522477 0.07220971 0.011092849 -0.017595531
0001d0 f2 98 88 3d a7 bd bd 3d bb 36 96 bd f1 51 bd bd
       0.06669797 0.09264689 -0.07334658 -0.09244145
0001e0 5b 06 81 3d c7 0c 23 bc ba 4e 20 3d eb 54 b6 bb
       0.0630004 -0.009951777 0.03913758 -0.005564322
0001f0 51 95 54 bc ae fc 49 3d 62 f8 a0 bc 20 c8 2f bd
       -0.012975053 0.04931324 -0.019649688 -0.042915463
000200 13 0e e7 bb 97 b4 09 3d 7b b4 ff 3b 23 b4 f2 bc
       -0.0070512383 0.03361949 0.0078034974 -0.029626912
000210 a3 6d 01 3d c9 53 37 3d 42 09 b6 3d e9 11 dc 3c
       0.0315987 0.044757638 0.088884845 0.026864009
000220 f7 03 74 3d b2 42 b3 bd 31 93 ab bd cd da 1e bb
       0.059574094 -0.087529555 -0.08377684 -0.0024239302
000230 da c0 8c bd fc 18 33 3d 8b 68 4e bd 52 93 83 bd
       -0.06872721 0.043725 -0.05039267 -0.064245835
000240 6b 86 82 3b bf 71 62 3d 3b 0d 65 3d e7 2d 4d bd
       0.003983309 0.055284258 0.05592082 -0.050092604
000250 df 99 b4 3b 8b d8 ef bc 50 18 fd bc e7 34 0f 3d
       0.005511507 -0.02927806 -0.030895382 0.03496256
000260 f0 25 bc bd 31 41 ec 3c 9d 01 99 bd d8 73 ea 3d
       -0.091869235 0.02883968 -0.07471011 0.11447877
000270 b2 1a 72 bd fc 08 bc bd 16 58 27 bd b7 e0 a3 bc
       -0.05910749 -0.09181401 -0.04085549 -0.020004613
000280 fc 8a 7c bc bc cc d4 3c 2a fd 32 bd da 1b 5d 3d
       -0.015413996 0.025976531 -0.043698467 0.05398164
000290 f6 9a 15 bb ac bb 1a 3d b9 5e da 3d c7 35 03 3e
       -0.002282796 0.037776634 0.10662598 0.12813483
0002a0 ad 98 9b bd 23 e5 9a 3b 20 0b 72 3c f8 08 95 bb
       -0.0759748 0.0047270223 0.01477316 -0.0045481883
0002b0 2b 15 69 3d a4 67 89 bd fd 08 0c 3e 55 18 3e bd
       0.056904953 -0.06709221 0.13675304 -0.046409924
0002c0 b4 6d 71 bd ea ff 1f bd 3f d4 c3 3c df 31 3d bd
       -0.05894251 -0.039062418 0.023904918 -0.04619014
0002d0 d1 dd 0a 3d bd 8a 98 bd 92 6b 80 bd 7f 84 1a bd
       0.033902947 -0.07448337 -0.062705174 -0.037724014
0002e0 fe 0b f4 bb 1a ef f1 bc 29 c9 19 bd a5 f4 60 3c
       -0.0074477186 -0.029532958 -0.037545357 0.013730203
0002f0 c3 e3 05 3d 4b 99 3f bd f8 a5 80 bc 97 7f fe 3c
       0.032687914 -0.04677705 -0.01570414 0.031066699
000300 d3 46 8a 3a 74 97 63 3d 62 64 87 3c 37 10 b2 bc
       0.0010549672 0.05556436 0.016527358 -0.021736247
000310 59 89 40 3d e0 a4 ad 3d d5 50 c0 bb 24 20 b2 3d
       0.047005985 0.08478713 -0.005869011 0.086975366
000320 b0 bd 30 bd 58 ea fc 3c 28 50 43 3d fe 2c 2f 3d
       -0.04314965 0.030873463 0.047683865 0.042767517
000330 e0 3c 0b bd f1 ce a5 bc 87 aa 1d 3d b3 62 9c 3d
       -0.0339936 -0.020240279 0.038492706 0.07636013
000340 6d a3 af 3d ec 6e 68 3d 5a 5d 94 bd 0a ea 05 3d
       0.08576093 0.05674641 -0.07244368 0.0326939
000350 1d 02 6c 3d 8d 68 4b 3d e0 f3 4b 3d 54 9f 64 bd
       0.057619203 0.049660254 0.049793124 -0.05581601
000360 3c 72 8b 3c ed 3b 04 3c 51 6e 8f 3d 7c 83 56 bd
       0.017022245 0.008070928 0.07003463 -0.052371487
000370 50 e8 5a bb c4 69 a1 3d dc 15 2a bc 09 ce f8 3c
       -0.003340263 0.07881501 -0.010381188 0.030371683
000380 9b 7b 99 bc 0a 49 63 bd bb 4c 9c bd a0 8c 79 3d
       -0.018735697 -0.055489577 -0.07631823 0.060925126
000390 7c 40 54 bd b5 1b 51 bc 4a 67 cc 3b d8 2c 52 bd
       -0.05181931 -0.0127629535 0.006237899 -0.051312298
0003a0 14 46 3e bd 42 18 6b bc d0 e8 12 3c 22 70 ed bc
       -0.04645355 -0.014349045 0.00896664 -0.028984133
0003b0 4a d6 37 b8 5f 77 0e 3c 20 f7 27 3d ed 0c ab bc
       -4.3830172e-05 0.0086954525 0.04100716 -0.020880187
0003c0 2f b6 34 bd 0f 5d a2 bd ca b5 d7 bc ef 9a 68 bd
       -0.044119056 -0.07927906 -0.026331801 -0.05678838
0003d0 da 33 1c 3d 00 37 ba bd f6 b5 de bc d3 61 58 bd
       0.038135387 -0.09092522 -0.027186375 -0.052827667
0003e0 dc cd a3 bd c6 c4 95 bd 07 c3 8e 3d 8a 2b c3 3d
       -0.07998249 -0.07312922 0.06970792 0.09529789
0003f0 fe 8f 8d 3d 0b d6 cd 3d 84 3f 89 3d 21 d9 52 3c
       0.0691223 0.10050591 0.06701568 0.01286915

conv2.0.bias f4 [8]
000000 7d af c9 bc ea 67 88 3a 55 b7 91 3c 77 41 91 3d
       -0.024619812 0.0010406945 0.017787615 0.070925646
000010 8d f3 31 be 48 e8 ce bc 27 63 40 bd 97 9d 9d 3c
       -0.17378063 -0.025257245 -0.04696956 0.019240184

conv2.2.weight f4 [8]
000000 f8 8a f6 3e 8c 1a 3d 3f 65 cf b9 3d 41 90 5f 3e
       0.481529 0.7386863 0.090727605 0.21832372
000010 c0 64 14 3f 5a 47 7d 3f 01 bd f6 3e eb 51 6d 3f
       0.5796623 0.98937 0.48191074 0.9270312

conv2.2.bias f4 [8]
000000 16 e6 d3 bd 6d ee 82 3d 91 06 d8 bd a5 65 9d 3d
       -0.1034662 0.06393132 -0.105481274 0.07685403
000010 0e b2 17 bd b7 6a 83 bd fe f0 03 bc fc e2 b4 3d
       -0.03703504 -0.064168386 -0.0080530625 0.08832356

conv2.2.running_mean f4 [8]
000000 e8 0f 88 3d b7 10 02 3f 3c 4c d9 3e 0e b7 9d 3e
       0.06643659 0.50806755 0.42440975 0.30803722
000010 1c 01 bf 3c df 47 88 3e e3 7d 39 3f 1e 92 9a 3f
       0.023315959 0.26617333 0.7245771 1.2075841

conv2.2.running_var f4 [8]
000000 22 2f 86 3c 1b fd f6 3e 84 4d 99 3e ff a4 58 3e
       0.016379897 0.4823998 0.29941952 0.21156691
000010 74 f2 88 3c 0f 23 05 3e aa 3a 52 3f 6b 25 1b 40
       0.016717173 0.13001655 0.82120764 2.4241588

conv3.0.weight f4 [16, 8, 5, 5]
000000 45 92 f1 bc 1f 7a 5b bd ea df 13 b9 8b 8f 76 bd
       -0.029488692 -0.05358326 -0.00014102427 -0.060195487
000010 1c 17 80 bd b3 0d bf 3a 3e a2 b4 bc 25 66 22 3d
       -0.06254408 0.0014576226 -0.02205002 0.039648194
000020 25 3b 67 bc 18 47 a3 bd f8 2d b1 3d 77 67 96 3c
       -0.014113222 -0.079725444 0.08651346 0.018359883
000030 20 d6 04 3d 62 f7 d2 bd fc dd 85 bd 1a de 08 bd
       0.032430768 -0.10301091 -0.06536481 -0.033414938
000040 ed b7 39 bd 69 f6 61 bd 91 32 83 bd c9 6b e1 bd
       -0.04534142 -0.055166636 -0.06406129 -0.110068865
000050 9d 45 27 bc 2f 7e 82 bd 09 b2 d1 bb 8d 66 bd bd
       -0.010209468 -0.06371724 -0.0063993973 -0.09248076
000060 84 c8 41 bd a0 1a 79 3b 8e aa a0 bc 8a b9 a1 3d
       -0.047310367 0.0038010255 -0.019612577 0.07896717
000070 55 b1 47 3d a8 4d 61 3c 20 5b 6e 3d 52 de 54 3d
       0.0487531 0.013751425 0.058192372 0.051969834
000080 72 90 be 3d 10 3f d0 3d c6 e9 60 bd c4 cf 03 3d
       0.093048945 0.10168278 -0.054910444 0.032180563
000090 ac b4 9e 3d ef ac 91 3d 9a de 22 3e 59 06 9d 3d
       0.07749304 0.071130626 0.15905228 0.07667226
0000a0 b5 4b ba 3a 48 5f c6 3d 60 38 3a 3d eb 2b ff 3d
       0.0014213236 0.09686142 0.04546392 0.124595486
0000b0 dd 78 df 3c b8 58 4b bd be 47 f0 3c 25 f5 06 3d
       0.027279312 -0.049645156 0.029331084 0.03294863
0000c0 d8 b1 7d 3b fd 6e 34 bd 24 42 a6 3c 8f 82 9f bc
       0.003871074 -0.04405116 0.02029521 -0.019471435
0000d0 3e ba 82 bd 81 c1 07 3d 46 8d 36 3d a4 3d aa bd
       -0.06383179 0.033143524 0.044568323 -0.08312538
0000e0 d2 54 8c bb 99 2d 2f bd 35 57 6e bd 50 82 75 bd
       -0.0042825723 -0.042768095 -0.058188636 -0.05993873
0000f0 f0 d4 44 3c 9a 38 76 bd 8d 3d 1c 3c 93 d7 54 bd
       0.012013659 -0.060112573 0.009536159 -0.0519634
000100 22 bf 00 bd 05 57 94 3c 57 39 b2 bb cf 1a 53 bd
       -0.03143228 0.0181079 -0.0054389643 -0.05153924
000110 c6 01 72 bd 4a 89 40 bc ec f8 78 bd 21 88 12 bd
       -0.059083723 -0.011751482 -0.060784265 -0.035774354
000120 47 31 5e bd a5 39 b2 bd b3 f5 8b bb da 02 c2 3d
       -0.054246213 -0.08702401 -0.004271233 0.094732
000130 db dd ac 3c fa 40 bf 3c f4 63 cf 3d 76 e9 4a 3d
       0.021101883 0.023346413 0.101264864 0.049539052
000140 72 5e ad 3d 56 6d 78 3d bd ef 9a 3d aa aa ea 3d
       0.0846528 0.060651146 0.07565258 0.11458333
000150 4b 89 b1 3d 1c 42 ad bc 84 07 21 3d 3c 50 9d bb
       0.08668765 -0.021149687 0.039313808 -0.0048008244
000160 07 a2 05 bc 97 eb 5a 3a da 96 bd bc 5b 3a 48 3d
       -0.008156306 0.00083511457 -0.02314322 0.048883777
000170 e6 e5 e9 3c 62 c8 69 3d fc 4d d2 3d 16 26 72 bc
       0.028552007 0.057075866 0.102687806 -0.014779588
000180 3c 2b 9a 3d 3c 35 ae bc 5b f3 cc bc 60 17 d4 3d
       0.075277776 -0.021265619 -0.025018385 0.10356021
000190 05 5f 91 bc b2 84 76 bd 10 6b 07 3d 10 3f f5 bc
       -0.017745504 -0.06018514 0.033061087 -0.029937297
0001a0 82 53 4c bd e3 41 39 ba 14 9e 6b 3a 5d 71 ea 3c
       -0.049884327 -0.0007067008 0.0008988094 0.028618509
0001b0 cd 36 89 3b 0f 1e 13 3b b3 ce 02 3c 1b 7a 6a 3d
       0.004187441 0.0022448336 0.007983851 0.057245355
0001c0 bf da 66 3d 50 06 68 3c b8 41 3c 3a 3b 03 04 bd
       0.056360956 0.014161661 0.0007181424 -0.032229643
0001d0 89 c2 c4 3c d9 a5 ad 3c 86 64 5a bd 1e 20 6f bd
       0.024018543 0.021197246 -0.053318523 -0.05838024
0001e0 42 73 1c bd 78 62 a9 3c 70 1c a7 3c 8a 59 2d 3d
       -0.038195856 0.020676836 0.020399302 0.04232172
0001f0 8f 97 9a bd f5 6c 28 bd 13 dc db bc 6b 19 88 bd
       -0.07548439 -0.041119535 -0.026838338 -0.06645473
000200 35 13 c7 bd 6d 34 c2 bd a4 61 3c 3c b8 75 6d bc
       -0.0972046 -0.09482656 0.011497889 -0.014493398
000210 14 2b 92 bb 95 70 1d 3d 30 8f 58 3c 49 1c 6c bc
       -0.0044607017 0.038437445 0.013217732 -0.014411041
000220 f2 69 c3 bc 39 65 49 bd ce 20 b4 bd 2a cb 70 bc
       -0.02385423 -0.0491688 -0.087953195 -0.014696876
000230 e3 ba 17 bd 05 1b c5 3c ae f0 8e bd 23 8b fd 3b
       -0.037043463 0.024060735 -0.069795 0.0077375337
000240 90 d6 61 bd 5c f3 79 bd fc 16 ce 3c cf e5 cf 3c
       -0.055136263 -0.0610231 0.025157444 0.025378136
000250 0d 08 87 3d 0d fc c8 3d 13 7a 5a bc f7 bf 59 bd
       0.065933324 0.098137 -0.013334769 -0.053161588
000260 7c 33 c0 3c 13 7c 16 bd 7a 02 21 3d 17 a2 bc bc
       0.02346205 -0.03673942 0.039309002 -0.02302651
000270 3a d6 49 3c f5 74 af 3d c2 3e f7 3b e5 52 78 3d
       0.012319142 0.0856723 0.007545323 0.06062593
000280 89 a2 85 3d df 7a 09 3c 57 36 cc 3d c5 2a 82 3d
       0.06525142 0.008391111 0.09971302 0.06355814
000290 70 02 85 3d 9f 30 a1 bb 84 f0 cd 3c cd c8 6f 3d
       0.064946055 -0.004919126 0.0251391 0.058541108
0002a0 49 d9 99 3d 46 3d e5 bc 15 80 80 3d fd 34 d5 bc
       0.07512147 -0.027983319 0.0627443 -0.026026243
0002b0 ad 23 5e 3d 15 ad 21 bd d0 33 7d 3c 73 a3 b7 bd
       0.05423324 -0.039471705 0.015454248 -0.08966722
0002c0 cd f5 23 3c 9e 73 d2 bd e3 d4 9e bb 88 b5 87 3a
       0.010007334 -0.102759585 -0.0048471554 0.0010353783
0002d0 c1 8a 76 bd 4e a2 71 3c 77 7c 97 bd 43 c1 f8 bc
       -0.06019092 0.014748169 -0.07396787 -0.030365592
0002e0 39 15 03 bd 26 2f 83 bd 54 a4 bb bd 54 dc 93 bd
       -0.03200266 -0.06405477 -0.091622025 -0.07219759
0002f0 0c 63 c5 bd df 2f 26 3d 1a 9a bd bd c7 fd c4 bd
       -0.09638032 0.040572997 -0.09257908 -0.09618717
000300 ca 50 38 bd 77 4f 99 bd 12 99 32 3d 06 c5 b8 3c
       -0.04499892 -0.0748586 0.04360301 0.022554886
000310 61 3b b6 3c 6e f5 40 3d 53 85 b5 bc 82 e2 52 bd
       0.022245111 0.04710906 -0.0221583 -0.051485546
000320 c3 10 6f 3c 83 14 c7 3c cb 5f cb 3c 72 46 7d 3d
       0.014591399 0.024301773 0.024825951 0.06183476
000330 c8 54 2b bd 6e 39 08 3e 33 4b 5b 3d 9c 51 12 3e
       -0.0418289 0.13303158 0.053538512 0.14288944
000340 45 b9 d0 3d e9 c6 0d 3d a0 8c 4c 3d 3d 74 b1 3c
       0.10191587 0.034613524 0.049938798 0.021661872
000350 68 b5 13 3d 16 f1 e4 bb 48 0c 0f 3c 8c b8 18 bd
       0.036061674 -0.0069867475 0.008730955 -0.037285373
000360 97 e2 68 bd ff 42 c0 bc 9e 9c d8 3b 0e c9 55 bd
       -0.056856718 -0.023469446 0.006610467 -0.052193694
000370 52 ed d5 bd fa 47 7d bd 50 e9 bd bd 83 c1 9a bc
       -0.10445656 -0.06183622 -0.092730165 -0.018891102
000380 ee 70 b1 bc fa d2 91 bd 50 ca 51 bd ae 52 dd bc
       -0.021660294 -0.07120319 -0.05121833 -0.027016964
000390 24 ea 6a bc b7 21 5f 3d f5 2e 5a bc c0 9e 53 bc
       -0.01433805 0.054475512 -0.0133168595 -0.012916267
0003a0 79 ae ad bd da 22 de bc 6c 07 63 bd 73 e3 1b bd
       -0.08480544 -0.027116228 -0.055427 -0.03805871
0003b0 06 79 2e 3c 87 b9 64 bc d0 87 3e bd 9e e6 69 bd
       0.010648971 -0.013960249 -0.04651624 -0.0571047
0003c0 15 38 53 3d 48 cd 8f 3d 39 26 61 bd c8 78 38 3d
       0.051567156 0.07021576 -0.054968093 0.04503706
0003d0 32 89 df bd a3 05 ce 3b 8e b7 58 3d cf cc d8 bc
       -0.1091484 0.006287293 0.052909426 -0.026464848
0003e0 97 84 e1 3c 47 5e fb bc cb 36 5d bc 40 19 9c bc
       0.027529044 -0.030684603 -0.013501833 -0.019055009
0003f0 be 02 8c bc 2d d2 8b bd 2f 6d 95 bd 42 9a 5c 3d
       -0.017091151 -0.06827197 -0.07296216 0.05385805

conv3.0.bias f4 [16]
000000 25 df 0b bd 2c 5b 54 bd b1 0e 0e be 9b 23 0e be
       -0.034148354 -0.05184476 -0.13872792 -0.1388077
000010 9f e3 01 3d db 88 19 3d 36 89 49 3c 22 79 85 3d
       0.031711217 0.03748403 0.01230078 0.06517245
000020 4b 53 2c bc c8 f8 ac bd 52 a7 88 bd 88 cd 0f bd
       -0.0105179055 -0.08445889 -0.06672539 -0.03510812
000030 45 93 ae bc ba 86 ac bd b8 d0 13 bd 5f bb 37 bd
       -0.021310458 -0.084241346 -0.03608772 -0.044856425

conv3.2.weight f4 [16]
000000 99 03 4c 3f 49 d2 6a 3f 87 40 5a 3f ed 77 3f 3f
       0.7969299 0.9172712 0.8525471 0.7479237
000010 d4 6c 73 3f 3a 67 f3 3e ed f5 2e 3f 55 b2 9c 3e
       0.95087934 0.47539693 0.68344 0.30604807
000020 40 33 6c 3f d1 02 40 3f 79 25 75 3f 1e 2c e5 3d
       0.922657 0.750043 0.95760304 0.11190055
000030 32 df 4d 3f a1 c6 a8 3e 06 7d 74 3f a3 06 9a 3d
       0.80418694 0.32964042 0.9550327 0.07520797

conv3.2.bias f4 [16]
000000 0e 99 34 bc 93 e1 e5 3c d0 5f a2 bc 0f b8 fc bb
       -0.011022819 0.028061664 -0.019821078 -0.007712371
000010 fb 61 d0 bb e6 4b c7 3d 49 40 41 3e 0a ee ec 3d
       -0.0063593364 0.09731273 0.18872179 0.1156884
000020 47 19 b6 3d 52 5f 0c 3e a1 e3 05 3e 12 38 0a 3e
       0.0889154 0.13708237 0.13075115 0.13497952
000030 d4 8d 1d bd c5 22 9d 3d 01 eb 0c 3c 09 d2 32 3e
       -0.038465336 0.076726474 0.008600951 0.17462935

conv3.2.running_mean f4 [16]
000000 ba 92 34 3f 79 75 23 3e 71 73 62 3e ac 95 a1 3e
       0.70536387 0.15962781 0.2211435 0.31559503
000010 62 c1 52 3f 5e 43 1b 3f 11 39 31 3f 62 b1 0e 3f
       0.8232633 0.6064967 0.692277 0.55739415
000020 a6 dd 23 3e db 8e 91 3e 2a 71 22 3e 05 83 58 3f
       0.16002521 0.28429303 0.15863481 0.8457492
000030 fe 41 ad 3e f4 99 5b 3e ce f2 32 3e 78 c4 25 3f
       0.3383941 0.21445447 0.17475435 0.6475291

conv3.2.running_var f4 [16]
000000 53 6e 82 3f d5 f3 3b 3e a5 35 c0 3e 1f 92 b2 3e
       1.0189918 0.18354733 0.37540928 0.34877107
000010 93 56 8b 3f 8f 06 04 3f ee 66 80 3f 67 e7 1b 3f
       1.0885795 0.5157251 1.0031412 0.60899967
000020 42 d7 16 3e 59 ff c4 3e 52 3a b7 3d f1 02 8d 3f
       0.14730552 0.38476065 0.089466706 1.1016523
000030 13 11 01 3f 33 c5 3f 3e 9a 6b 4b 3e b8 28 78 3f
       0.5041668 0.1872757 0.19865265 0.9693713

conv4.0.weight f4 [16, 16, 5, 5]
000000 08 7d 52 3c c9 2b 54 bc 3b 7b 6e bc 6a bf 5d bd
       0.012847193 -0.012949892 -0.014555748 -0.054137625
000010 29 55 28 3c 4d 14 41 bd c1 62 b1 bd 43 db d8 b8
       0.01027421 -0.0471385 -0.08661414 -0.00010340523
000020 c1 9c f2 39 0d 4c 2e bb e2 6b 13 bc 1b e4 5e bd
       0.00046274628 -0.0026595623 -0.008997889 -0.054416757
000030 35 67 a0 bd 07 82 21 bd a6 54 b9 3a be c7 93 bd
       -0.07832185 -0.039430644 0.0014139607 -0.07215832
000040 7e 8a af bd 28 18 78 bb 16 78 4c bd c3 0c 3e 3c
       -0.08571337 -0.0037856195 -0.04991921 0.011599722
000050 80 1a 45 bd aa 8f e5 3a 30 48 a4 bc ba 3d 08 3d
       -0.048120975 0.0017514129 -0.020053953 0.033261992
000060 4d 2e 90 bd 09 a3 98 bc 7b 00 99 3c 5a fb e4 3c
       -0.07040081 -0.018632429 0.018676987 0.027951885
000070 eb f0 78 bc af d9 99 bd ac 1a ce bc 74 0f f8 3b
       -0.015194158 -0.07512223 -0.025159203 0.0075702015
000080 26 cf 1c bd 02 45 47 bd 5d 71 1b bd d9 0c a6 bc
       -0.03828349 -0.048649795 -0.03794991 -0.020269798
000090 4c 9e f7 bc 8a c9 0b bd fe 52 c3 bc 4a f1 4e bd
       -0.030226849 -0.03412775 -0.023843285 -0.05052308
0000a0 7f db f3 3c 3c cc 21 3d 15 cc d5 bb 35 b4 5a bc
       0.02976775 0.039501414 -0.0065245726 -0.013348629
0000b0 22 76 5b bc 7d c4 db 3c 1a 8e d7 3c f9 62 03 3d
       -0.013394864 0.026827091 0.026312876 0.03207681
0000c0 c7 c0 95 3d 8e 75 be 3d 3f 29 48 bd 5c 26 ec bc
       0.0731216 0.092997655 -0.04886746 -0.028826885
0000d0 20 a1 58 bd 03 c0 48 bd 83 a9 0d bd 7e 80 81 bc
       -0.052888036 -0.04901124 -0.034585487 -0.01580834
0000e0 4a 60 a1 bd eb d1 35 bd 4a e0 6b bd f8 76 98 bd
       -0.07879694 -0.044389647 -0.057586946 -0.074445665
0000f0 f4 29 fb bc bd 06 63 bb c8 bd 24 bd 77 95 ae bd
       -0.030659653 -0.0034641468 -0.040220052 -0.08524602
000100 3f 42 aa 3c 4e 3b 27 3e ff a5 3e 3d 36 bc a5 bc
       0.020783542 0.16331217 0.046545025 -0.020231348
000110 19 49 91 3b b9 43 90 bb bd 32 2a 3e 01 8c 0c 3e
       0.0044337627 -0.0044026044 0.16620918 0.13725282
000120 45 06 56 3d 91 c1 b6 3d 9c c2 69 3d a2 8a f0 3b
       0.052252073 0.089236386 0.05707036 0.007340745
000130 b6 51 98 3c 6d ec 23 3c a8 ab 94 bd 95 03 98 bd
       0.01859365 0.010005099 -0.07259303 -0.07422558
000140 49 4f bc 3c c2 48 3b bc 3c 1e 8c bd 96 cf 90 bd
       0.022987025 -0.011430921 -0.06841704 -0.07070844
000150 85 2e 50 bd 4d 65 94 bc 8c 23 52 3c 70 0c 99 bc
       -0.050825614 -0.01811471 0.012825858 -0.018682688
000160 9d 43 91 bd 2e bf 89 bc e4 23 8a bd b6 dd 62 bd
       -0.07092974 -0.016814794 -0.06745127 -0.05538722
000170 c3 b8 ab 3c ce f6 a7 3c 2d 87 b7 bc 65 19 c0 3d
       0.020962125 0.020503428 -0.022403324 0.093798436
000180 28 24 cc 3c 04 fd 19 3d 7d 3c 59 bc 1d 25 d1 bb
       0.024919584 0.03759481 -0.01325905 -0.006382598
000190 91 55 69 bd 99 d4 df 3b af 35 df 3b 27 28 a9 bc
       -0.056966368 0.0068307635 0.0068118195 -0.020649029
0001a0 ea 83 0b bc dc 19 28 3d 10 cc ee bc e8 59 36 bd
       -0.0085153375 0.041040286 -0.029150039 -0.044519335
0001b0 59 f2 2e bd 04 d8 8b 3d 39 c0 5f 3d 04 5c be 3d
       -0.04271159 0.06828311 0.054626677 0.09294894
0001c0 36 8c 27 3d 63 ed 7e bd a0 43 36 bb 4b 67 92 3d
       0.0409052 -0.06223811 -0.0027811304 0.07148608
0001d0 5e 27 04 3d e8 a3 67 bc 33 6a eb bc c2 85 a7 bc
       0.032264106 -0.014138199 -0.028737163 -0.020449523
0001e0 aa be 71 3d 06 d0 9a 3d e8 2b a3 3c 30 20 9a 3d
       0.059019722 0.075592086 0.019918397 0.075256705
0001f0 6c f6 60 3c 49 8b b1 3c cb 78 2d bd 91 98 4a bb
       0.013730627 0.021672862 -0.042351525 -0.003091369
000200 25 6d 0c bd 17 df a9 bc bf 3a 16 3d 3d 1f 5b bd
       -0.034283776 -0.02073626 0.03667712 -0.053496588
000210 c8 8b 56 bd c2 4b 20 bd a0 04 42 bc fa 82 61 3d
       -0.0523794 -0.03913475 -0.011841923 0.05505655
000220 c2 c2 15 3d 5f 81 c2 3c 78 fb f6 3c 5e 9c 6f bd
       0.03656269 0.02374333 0.030149207 -0.058498733
000230 34 ed 2f bd 50 4d f1 3b a0 bc 07 bd 9c d8 e1 3c
       -0.042950824 0.0073639527 -0.03313887 0.027569108
000240 62 7c 39 bd a9 14 6a bd 43 55 a5 bd e8 d9 9e bd
       -0.045284636 -0.05714861 -0.08072903 -0.07756406
000250 58 1e 10 3c 8d 36 4b bd 0b a2 6a 3b bf 48 a7 3c
       0.008796297 -0.04961257 0.0035802152 0.02042043
000260 1c fc cc 3b fd 5b 6c 3c c6 d7 4d 3a a6 db 00 3d
       0.0062556397 0.014426229 0.0007852282 0.031459473
000270 28 48 ab bd 8c 5b c9 bd e8 89 b6 bc c5 cd 7c 3c
       -0.08363372 -0.09831914 -0.022282556 0.015429919
000280 80 be 1e 3d c8 0c 14 3c 48 4b 6a bc 5a e3 93 bc
       0.038755894 0.00903625 -0.014300175 -0.018052746
000290 a5 e9 1f bc da 23 4a 3d e5 12 8a 3b 92 ef 90 3c
       -0.009760295 0.049350597 0.004213678 0.017692361
0002a0 1c 39 a9 3c 60 96 09 3c e2 27 5b bd 80 a3 12 bc
       0.020657115 0.008397669 -0.053504832 -0.008950114
0002b0 53 ea 43 3c de f0 2d 3d 28 99 5d 3c 8b 10 1a bd
       0.011957723 0.042466037 0.013525285 -0.037613433
0002c0 79 83 00 3d 8d 34 a7 ba 76 a8 1f 3c 0c c2 15 bd
       0.031375382 -0.001275675 0.009744754 -0.03656201
0002d0 98 f4 58 bd 26 50 b5 3c ea bf 4e bd 8a 32 9d bc
       -0.052967638 0.022132944 -0.050475992 -0.019189138
0002e0 96 4d 4f bc 53 c5 92 bb 97 0d ff 3c 85 c7 cc 3c
       -0.012652775 -0.0044790893 0.03113441 0.024997482
0002f0 29 9b 08 bd c3 49 34 bc 12 cb 04 3d 13 72 d6 3c
       -0.033351097 -0.011003914 0.032420225 0.026177442
000300 7e 3c 59 3d b2 7a 01 bd 38 8f 03 bd 02 c7 41 3d
       0.053036205 -0.031611152 -0.032119006 0.04730893
000310 91 43 33 3d d1 8f 9c 3c 5e 75 20 bb 91 8b 6d 3c
       0.04376561 0.019111546 -0.0024484019 0.014498607
000320 2d 83 8f bb dc 17 dd bb 53 f7 51 bd 9d 32 4c bd
       -0.004379651 -0.006747229 -0.051261257 -0.049852956
000330 40 3d 75 bd b9 c6 45 bd 83 a7 a0 bd 76 b3 80 bb
       -0.059872866 -0.04828522 -0.0784445 -0.0039276434
000340 be 95 36 bd 85 fd 08 bd 48 db 81 3d d1 31 7d bb
       -0.0445764 -0.0334449 0.06340653 -0.003863443
000350 af 14 9f bd c2 17 94 bd cc 0c 95 bb eb 1c 9b 3d
       -0.07767617 -0.07231094 -0.0045486446 0.07573875
000360 b4 80 c1 3b 2c 87 71 bd bc 59 7a 3b 0c 9a 0a bc
       0.005905235 -0.0589668 0.0038200459 -0.008459579
000370 fb 52 24 3d 94 0e 36 bc 97 17 c9 bd a5 48 c5 bc
       0.0401182 -0.011111874 -0.098189525 -0.024082491
000380 d4 ad a7 bb 26 d9 18 bc 41 89 8c bd da e0 77 bd
       -0.0051171575 -0.009329116 -0.068621166 -0.06051717
000390 ff e2 e3 bd 81 8b 1b bd 87 ce a2 bc 02 de bf bc
       -0.111272804 -0.03797484 -0.01987387 -0.023421291
0003a0 9f 56 56 bd 0f a4 8e bd db 18 06 bd 3e 8e 18 3d
       -0.052328702 -0.069648854 -0.032738548 0.037245028
0003b0 c5 58 2c 3d 53 11 91 3d e7 47 09 bd 1f 68 4a bc
       0.042076845 0.070833825 -0.033515837 -0.012353926
0003c0 b7 4d fe bc 9e bf c0 bd 3e ab 2a bd 81 fc 38 bc
       -0.031042917 -0.09411548 -0.041667216 -0.01129067
0003d0 8e a6 78 bc de e9 72 bd 92 f4 32 bc d0 60 80 bd
       -0.0151764285 -0.059305064 -0.010922568 -0.062684655
0003e0 31 9d 91 bd 58 d0 6e bd ad c6 31 3d 0c 7b db 3a
       -0.0711006 -0.05830416 0.043402363 0.0016745045
0003f0 04 06 71 3d 5d a9 8f 3d 9b 1a c5 3c 42 33 42 3d
       0.058843628 0.07014725 0.024060538 0.047412165

conv4.0.bias f4 [16]
000000 e7 ee 0c be 31 58 d2 bd 32 76 d8 bd 91 1d 8e bd
       -0.13763009 -0.102707274 -0.10569419 -0.06939233
000010 42 9e 97 bd d0 6b b2 3c 72 26 a8 bc 57 40 56 bc
       -0.07403232 0.021779925 -0.020526145 -0.013076863
000020 56 37 84 bd 97 42 12 be 37 f1 f8 bc d6 8c 10 be
       -0.06455867 -0.14283215 -0.030388458 -0.14116225
000030 6b 5a e3 bd e6 d0 d3 bd 7e 9a 6f bd ab 89 e8 bd
       -0.1110123 -0.103425786 -0.058496945 -0.11354383

conv4.2.weight f4 [16]
000000 46 bb 2d 3f 5e 91 56 3f 00 6d 9a 3e 42 1b c4 3e
       0.6786388 0.8381556 0.30161285 0.38302046
000010 e7 d4 cf 3e 86 0f 40 3f a3 bb 75 3f 72 28 f9 3e
       0.4059212 0.75023687 0.95989436 0.4866367
000020 c8 64 cb 3e 98 4b e7 3e fc 1d f0 3e 0d e8 42 3f
       0.39725327 0.4517486 0.46897876 0.7613533
000030 8f 15 6d 3f c5 bd 0b 3f 4c 72 92 3e be 5b 40 3f
       0.9261102 0.5458644 0.28602827 0.7513999

conv4.2.bias f4 [16]
000000 87 a1 16 be 4d c4 17 be df ac f7 bd 12 e1 15 be
       -0.14710055 -0.14820977 -0.120935194 -0.14636639
000010 77 f4 d7 bd 06 04 33 be 2c 5e f1 bd e4 97 ad bc
       -0.10544675 -0.17482004 -0.1178554 -0.021190591
000020 6b fa f1 bd 93 e1 6a be 4e 33 43 bd a7 6a 08 be
       -0.118153416 -0.22937612 -0.04765635 -0.13321935
000030 dd 3d 0e be 01 bd 18 be bf f6 b7 bc da 65 2b be
       -0.13890786 -0.1491585 -0.022456525 -0.16738072

conv4.2.running_mean f4 [16]
000000 90 77 68 3e 44 48 c9 3d cf 45 50 3e 1d 4e c4 3e
       0.2270186 0.09828237 0.2033913 0.38340846
000010 ba 73 90 3e 52 97 00 3f 2b 17 5b 3f 0d 21 d6 3e
       0.28213292 0.50230896 0.85582227 0.4182209
000020 95 e8 be 3e 99 19 2c 3e fd 5e 90 3e 3b 75 06 3f
       0.3728682 0.1680664 0.2819747 0.5252263
000030 42 ab 10 3f d4 39 a4 3e 82 dc aa 3e 4d c2 00 3e
       0.5651132 0.3207537 0.3337136 0.1257412

conv4.2.running_var f4 [16]
000000 9f 9e 5c 3f ed 27 c2 3e 8e 06 94 3e ff b8 07 3f
       0.86179537 0.37921086 0.2891125 0.53016657
000010 96 aa 92 3e 5e 81 71 3f 9c 3a 47 40 62 71 1a 3f
       0.28645772 0.94338024 3.1129522 0.6032926
000020 89 4e 90 3f 7b 82 9e 3e d7 5d af 3e b8 60 58 3f
       1.1273967 0.30958924 0.34251282 0.8452258
000030 53 7c 40 40 6c f0 36 3f 90 c2 f8 3e c8 a9 81 3e
       3.0075881 0.71460605 0.4858594 0.25324845

full1.1.weight f4 [16, 1024]
000000 4a 6e 3b bd be 7b aa bd 24 2f ad 3b 5e 16 23 ba
       -0.045759477 -0.08324383 0.0052851606 -0.00062212895
000010 59 8e 3a 3d d8 91 27 bb 81 2b 3b bd 10 0d 22 3d
       0.04554591 -0.0025569107 -0.045695785 0.03956324
000020 86 eb 23 bd 84 f3 56 bd 13 28 b2 bd d8 0b 95 bd
       -0.040019535 -0.05247833 -0.0869905 -0.0727765
000030 3d b6 1b bd 87 ad 92 bd 07 96 78 3c 4f a7 20 3d
       -0.038015593 -0.07162004 0.015172488 0.039222058
000040 b0 21 f8 ba 8c c5 ac bc 31 b9 d3 3d 73 6f 44 3e
       -0.0018930938 -0.021090291 0.10338057 0.1918314
000050 f2 16 b8 3d 84 29 fb 3d 76 78 47 3d 24 2c b3 bd
       0.089887515 0.12263778 0.048698865 -0.087486535
000060 53 41 c5 3c 12 05 a0 bd e4 ad ae 3c 5d 30 a6 3d
       0.024079 -0.07813467 0.021323152 0.08114693
000070 21 e4 f3 3d 5c f5 25 bd 87 ae 8f bc 15 cc 4f bd
       0.119087465 -0.040517196 -0.017539276 -0.050731737
000080 4e f6 8a bc 07 91 80 3a 50 95 68 bd 19 6c bf 3d
       -0.01696315 0.0009808847 -0.05678302 0.0934679
000090 d9 8c 09 3e f0 a3 a2 bc b8 9f 69 bd 54 ab 07 bd
       0.13432635 -0.019853562 -0.057037085 -0.033122376
0000a0 00 0c c4 bd 21 2e de 3c 30 53 97 bd 54 c4 08 3e
       -0.09572601 0.027121605 -0.07388914 0.13356143
0000b0 67 1b 43 3d 54 0c e6 bb b7 4b ee bc 5e 97 21 bd
       0.047633555 -0.0070205126 -0.029088838 -0.039450996
0000c0 0a 22 73 bc 49 75 d0 3c a6 53 62 bd d5 5c 43 bc
       -0.0148396585 0.02544655 -0.055255555 -0.011923988
0000d0 62 38 94 3b ce 5d f2 3c e8 aa 2a bd 8f 2d 2d bd
       0.004523323 0.029585745 -0.041666895 -0.042279776
0000e0 a9 ef 36 bd 01 53 a5 3b 1c 05 d2 bb 2d 9f 4a bd
       -0.04466215 0.005045295 -0.0064093005 -0.049468208
0000f0 1b fa 80 3c 95 0a c0 3c 60 aa 9a bc 1a 07 0f 38
       0.01574426 0.023442546 -0.01888007 3.410047e-05
000100 dd 9e 82 3c 52 3f 54 3d 65 c6 c5 3c af 20 91 bd
       0.015944893 0.0518182 0.024142453 -0.07086312
000110 30 1e 82 bd dd 3e 2c bd 44 1c f2 bc 2f 5c 2b 3d
       -0.06353414 -0.04205214 -0.029554494 0.04183596
000120 65 49 a3 bd e4 07 07 39 c6 e6 1b 3d ec 18 18 bc
       -0.07972983 0.00012877543 0.03806188 -0.009283286
000130 c5 d7 bc 3b 8f 08 bd bd e3 66 f6 b7 be 89 95 bb
       0.0057630264 -0.09230148 -2.9373396e-05 -0.0045635393
000140 07 03 3a bd 12 00 1b 3d 78 78 0f 3d 81 b5 0b 3d
       -0.045413043 0.037841864 0.035026997 0.034108642
000150 8d 3a 52 3d 6a 07 f5 3c 7b 9e bb 3a 85 cd 32 bd
       0.05132537 0.029910762 0.0014314199 -0.04365303
000160 bd 99 27 bc 66 7b 14 3c fb 4a d3 3d f4 58 e6 3d
       -0.010229525 0.009062624 0.10317036 0.11247435
000170 3d c6 d6 3d 16 d7 21 3d 56 3d ce bd 8e fd b4 bb
       0.1048703 0.039511763 -0.10070293 -0.00552339
000180 40 62 73 3d b0 40 f7 bd 47 a5 af 3d 64 ac 12 3e
       0.05941987 -0.12072885 0.08576446 0.14323574
000190 08 b6 b3 3d bd 8e c2 bd ec 99 e9 bc 78 a0 e3 bc
       0.08774954 -0.094998814 -0.028515778 -0.027786478
0001a0 67 73 13 3c f7 c9 30 3d a3 e9 c4 3d 06 d0 8f 3d
       0.008999682 0.04316136 0.09614875 0.07022099
0001b0 ce 64 65 bc 02 ba 6e bc 2d c0 a2 bd e5 6c 0f bd
       -0.0140010845 -0.014570715 -0.07946811 -0.03501596
0001c0 e3 09 bb 3c 46 9c 9a bd b3 db a7 bc df d2 31 3d
       0.022831863 -0.07549338 -0.020490503 0.043413993
0001d0 fd 0d 22 3c 0d 56 67 3d ef 6b 41 3c 29 9e 6f bd
       0.00989103 0.05647855 0.0118055185 -0.058500443
0001e0 c2 58 b7 3c 1b ee ab 3c 11 6b 15 bd 84 3a 9f ba
       0.02238119 0.020987561 -0.03647906 -0.0012148176
0001f0 0b c0 45 3c 8f 2e ff 3b 4b 15 28 bd 5c 04 28 bd
       0.012069712 0.0077875326 -0.04103593 -0.041019782
000200 13 4e f8 3b 45 d7 9c 3d 93 99 93 3d ba f7 c1 bc
       0.0075776665 0.07658247 0.07207026 -0.023677696
000210 f2 ed 61 bd 5b 12 46 bc 45 cb a4 3c 50 4f 94 3d
       -0.055158563 -0.012089337 0.020116458 0.0724169
000220 77 1a 4e bc 43 55 3a 3d 7d 51 a2 bd a3 93 3e bd
       -0.012579552 0.04549147 -0.07925699 -0.046527516
000230 3a fa 19 bd d2 2c c5 3b 6a ab fe 3c ec 46 57 3d
       -0.03759215 0.006017306 0.031087596 0.05255787
000240 35 c7 28 3c c7 7b aa 3d 46 4a 1c 3e 57 20 5b 3d
       0.010301401 0.0832439 0.15262708 0.05349764
000250 b7 f4 1e 3e e1 90 15 3e 6b a6 50 3d ad 80 8e 3c
       0.15523039 0.14606048 0.05093996 0.017395342
000260 e0 c1 4f 3d 78 4a 0d bd 74 87 15 bd d9 5f 06 be
       0.050722003 -0.034494847 -0.03650613 -0.131225
000270 84 fe ad bd 68 fc f6 bc c2 fc bb bd b0 7e a5 bc
       -0.08495811 -0.030149654 -0.09179069 -0.02020201
000280 49 54 c8 3c eb 30 32 bb ee cb c9 bc a6 31 b5 3d
       0.024454253 -0.0027189802 -0.024633374 0.0884736
000290 d1 9f fb 3d 19 2e d0 3c 85 b5 2e bd a4 60 74 bc
       0.12286342 0.025412606 -0.04265358 -0.014915619
0002a0 6a cc 19 bd 94 21 22 be f8 20 8b bc 00 8b 80 bc
       -0.03754846 -0.15833122 -0.016983494 -0.01569128
0002b0 b5 af 7f 3c bb 89 63 bd 07 4f 09 bd 4e 92 be bd
       0.015605857 -0.055551272 -0.033522632 -0.09305249
0002c0 60 00 c8 bc b9 85 81 bd a3 e5 a9 bc 30 2f 90 bc
       -0.024414241 -0.06324334 -0.020739382 -0.017600626
0002d0 dc 5d 7c bd 62 97 d2 bd 6d 2e 42 bd 0d 9f 55 bd
       -0.06161295 -0.1028278 -0.047407556 -0.052153636
0002e0 35 ca 69 bd ac 04 f0 bc e9 e9 b2 bc 4e 15 ed bc
       -0.057077605 -0.029299103 -0.021840053 -0.028940823
0002f0 78 74 9c bb 8e 6e 36 bd 8c ca a5 bd d0 6c a1 bd
       -0.0047746263 -0.044539027 -0.080952734 -0.078820825
000300 6b a8 c1 bd a2 2f 7f 3d 74 e1 93 3c dd 22 9a 3d
       -0.09455951 0.062301286 0.01805184 0.07526181
000310 8f d0 54 3c 0c 5a 60 bc 35 18 2b 3d a5 c2 ad bd
       0.012989177 -0.013693344 0.041771132 -0.08484391
000320 2b 80 21 bd b2 41 a9 3d 9e b2 b4 3c b2 8c 23 bd
       -0.03942887 0.082644835 0.022057828 -0.0399291
000330 80 9f 24 3c be a9 89 3d ad 92 1f 3c a2 70 72 bd
       0.010047793 0.06721829 0.00973956 -0.059189446
000340 65 60 9a bc 88 9c 12 3d b6 2a 35 bd 6c 6b a1 bd
       -0.018844793 0.03579381 -0.044230185 -0.07881817
000350 47 93 ba bd 76 6b fd bc 58 b8 94 3d ee a2 82 bd
       -0.09110122 -0.03093503 0.07261723 -0.063787326
000360 71 a0 e1 3d 58 a5 16 3d 9d 51 cb bd 9f da 05 be
       0.1101693 0.036778778 -0.09927676 -0.13071679
000370 48 c8 ff bd ab ed ec 3c 48 da 52 3a c4 c2 a1 3b
       -0.124893725 0.028921923 0.00080433907 0.004936548
000380 70 ac a5 3d c3 04 4d 3d 46 55 52 bd f4 c7 d8 bd
       0.080895305 0.05005337 -0.051350854 -0.10585013
000390 76 e1 65 bd e3 83 c5 3c 20 61 d8 3d a6 b1 01 bc
       -0.05612322 0.02411074 0.105654 -0.00791589
0003a0 91 66 13 3b e5 e0 80 3d b2 ef 0b 3d c3 f6 27 bd
       0.0022491554 0.06292895 0.03416414 -0.041006815
0003b0 60 58 b3 bd 97 0f 37 3d a0 57 eb 3d 56 bc 2b 3d
       -0.087570906 0.044692602 0.114913225 0.041927658
0003c0 a0 d0 70 3c 61 6a 94 3d bd d2 6b 3d 1e 96 a1 3c
       0.014698178 0.07246853 0.057574023 0.019724902
0003d0 7a 50 50 3d 19 e8 e7 3d 08 bc 81 bc e5 4f 49 bc
       0.050858 0.11323566 -0.01583673 -0.012287115
0003e0 92 4e 99 bd 73 b7 cd 3c 47 da 87 bc 4a bf 6c 3d
       -0.07485689 0.02511189 -0.016583575 0.057799615
0003f0 25 83 04 3e 30 b0 de bc fc 7f e9 bc 15 be 47 bd
       0.12940653 -0.027183622 -0.02850341 -0.04876526

full1.1.bias f4 [16]
000000 aa 19 1c 3c d6 b7 65 3c 78 83 59 3d 67 8e 44 3b
       0.009527603 0.014020881 0.053103894 0.0029992105
000010 45 46 50 3c 1a 1d 8a bb 49 3c 81 bc 37 31 db 3c
       0.012712066 -0.004214895 -0.015775817 0.026756866
000020 d7 ab 35 3d c2 be 20 3b 6f f7 b6 3c 3b 78 9c bb
       0.044353332 0.0024527763 0.022334782 -0.004775075
000030 2d 05 81 bc 2f 60 e0 bb 46 3f 0c 3d 42 82 2d 3c
       -0.015749538 -0.0068474035 0.03424003 0.010590138

full2.1.weight f4 [2, 16]
000000 00 28 10 be 84 d2 30 3e 74 13 81 3e 38 d2 a8 3e
       -0.14077759 0.17267805 0.25210154 0.32972884
000010 8b 65 09 bb 21 f6 9d 3e af 2d 84 3e 75 6b 96 3e
       -0.0020965065 0.30851844 0.25816104 0.29378858
000020 b8 00 b0 3d 89 92 8a 3e a8 8b 8e 3e 1e f3 b6 3e
       0.08593887 0.27064922 0.27840924 0.3573236
000030 5b ed 77 bd 04 9e 15 3c 9b f9 15 3e cb 65 41 3e
       -0.060529094 0.009131912 0.14645998 0.18886487
000040 a0 f2 2a 3e 47 74 9f be dc 21 5a be 51 13 8e be
       0.16694117 -0.311434 -0.21301979 -0.27749112
000050 5a bc 9b 3e fa 6d ef bc a8 3a 5b be 5f 4d e3 bd
       0.30417138 -0.029227246 -0.21409094 -0.11098742
000060 4c 6b 86 be 2f 1e 30 be 86 85 ff bd 2e 92 8c bd
       -0.26253736 -0.17199014 -0.124766394 -0.06863819
000070 53 75 81 3e ab b2 89 3e f7 88 5b be f6 e3 46 be
       0.25284824 0.26894125 -0.21438967 -0.19422898

full2.1.bias f4 [2]
000000 33 f0 8b bd 31 c5 36 be
       -0.06832924 -0.1784866

exp_avg f4 [8, 3, 3, 3]
000000 f6 d6 8f bb c8 f4 92 bb fe 78 95 bb 5c 36 96 bb
       -0.004389639 -0.0044847466 -0.0045615425 -0.004584117
000010 39 e8 93 bb 04 f1 8d bb e7 fd 86 bb 59 70 7e bb
       -0.004513767 -0.00433171 -0.004119623 -0.0038824289
000020 17 91 67 bb 5f 28 0e b8 dd 24 2a b9 f6 16 7b b9
       -0.0035334283 -3.3893037e-05 -0.00016226196 -0.00023945779
000030 51 4c a1 38 be cd dc 38 e3 92 8d 39 e2 c2 f4 39
       7.691293e-05 0.0001052874 0.00027003055 0.00046684506
000040 34 12 34 3a a2 06 87 3a 7d ea a9 b6 ef b7 95 b8
       0.00068691676 0.0010301659 -5.0638905e-06 -7.139134e-05
000050 6b 63 b4 b8 92 01 d2 39 b4 b0 04 3a 5a f7 41 3a
       -8.601587e-05 0.0004005549 0.0005061731 0.0007399224
000060 fe a2 4c 3a 5e 79 8b 3a 97 eb b9 3a fe 99 38 bd
       0.000780627 0.0010641029 0.0014184591 -0.045068733
000070 72 26 35 bd ab c9 2e bd b8 4e 2a bd 28 ad 25 bd
       -0.044226117 -0.042672794 -0.04157898 -0.040448338
000080 81 19 21 bd 63 da 15 bd dd 47 0f bd 1c 60 0b bd
       -0.039330963 -0.036585223 -0.034980644 -0.034027204
000090 5a 68 41 bd 58 9d 3e bd b2 60 37 bd eb 7b 2d bd
       -0.047218658 -0.046536773 -0.04476995 -0.042354506
0000a0 48 a4 29 bd 25 a9 23 bd 64 90 14 bd 18 a7 0e bd
       -0.041416436 -0.03995623 -0.036270514 -0.03482732
0000b0 7f 48 09 bd d7 09 55 bd 48 a9 51 bd 54 4f 4a bd
       -0.033516403 -0.052011337 -0.05118683 -0.04939206
0000c0 5a 97 40 bd b2 e6 3a bd 24 d6 35 bd 80 66 27 bd
       -0.04701934 -0.045630164 -0.044393674 -0.040869236
0000d0 69 a7 20 bd 03 43 1b bd fc 69 d9 3c e2 54 d5 3c
       -0.039222155 -0.037905704 0.026539795 0.026041452
0000e0 0c f0 e1 3c f4 e3 b3 3c f2 bf 97 3c 78 11 a0 3c
       0.027580284 0.021959282 0.018524144 0.01953958
0000f0 8b a0 bb 3c 40 fb 92 3c 42 26 a2 3c 07 8e b8 bb
       0.022903701 0.017942071 0.019793633 -0.0056321654
000100 d3 ba c6 bb 97 70 9f bb fa 7b 23 bc e1 05 5b bc
       -0.0060647517 -0.0048657167 -0.009978289 -0.013368101
000110 c2 02 61 bc 41 d5 05 bc 52 b0 5b bc 59 ff 5e bc
       -0.013733568 -0.0081685195 -0.013408737 -0.013610684
000120 93 88 ed bb 1e 06 f5 bb 84 35 a9 bb 89 33 2e bc
       -0.007248947 -0.007477536 -0.0051638503 -0.010632404
000130 9c d3 56 bc e0 af 4b bc 5a 21 08 bc d9 9b 46 bc
       -0.013111975 -0.012432069 -0.008308733 -0.012122118
000140 b0 4c 32 bc b2 25 47 ba 7f a9 48 ba 9e ba 49 ba
       -0.010882542 -0.00075968646 -0.00076546514 -0.00076953496
000150 22 f6 13 ba 1f aa 15 ba 34 f9 23 ba 74 e1 d5 b9
       -0.00056442816 -0.0005709249 -0.00062550907 -0.00040794502
000160 64 4b dd b9 0a 08 02 ba a7 fe 94 b9 7d 94 97 b9
       -0.00042208575 -0.00049603044 -0.0002841849 -0.00028911597
000170 25 da a9 b9 da 81 00 b9 23 f3 ea b8 9a d9 05 b9
       -0.00032396722 -0.00012255405 -0.00011203277 -0.00012764931
000180 1b 54 4b 38 9b a6 6a 38 53 17 37 37 fd f0 18 b9
       4.84773e-05 5.594511e-05 1.0913081e-05 -0.00014585625
000190 0f 22 21 b9 b5 43 1b b9 95 3b 82 38 2c 03 9e 38
       -0.00015366844 -0.00014807175 6.209981e-05 7.534618e-05
0001a0 48 15 2e 38 7e 53 6e 39 f8 3f 65 39 33 8c 36 39
       4.1504652e-05 0.00022728552 0.00021862972 0.00017409101
0001b0 aa e6 f3 3b 78 e4 f5 3b be 5f fc 3b ff 5b 9d 3b
       0.007443269 0.0075040422 0.007701843 0.0048022266
0001c0 5f f6 77 3b 7c 9e 96 3b 5a 15 af 3b 64 17 6c 3b
       0.0037836058 0.0045965295 0.0053431215 0.0036024684
0001d0 34 7b 1d 3b df cb 19 3a e6 63 aa 3a 82 6c b6 3a
       0.0024029734 0.0005866866 0.0012999743 0.0013917836
0001e0 2c 6c 3b bb 42 1d 64 bb 13 a6 06 bb 72 8c 75 bb
       -0.002859841 -0.0034807478 -0.0020545765 -0.0037467745
0001f0 34 ad 95 bb be 0a bf bb 55 5b 38 bb d1 73 20 bb
       -0.0045677666 -0.005830138 -0.002813061 -0.0024483094
000200 ba 19 0e bb 67 7c f3 bb 73 89 fc bb 5e 35 ca bb
       -0.0021682815 -0.0074306014 -0.007706815 -0.0061709126
000210 62 87 19 bc ed 94 12 bc 11 73 29 bc 91 73 78 bb
       -0.009370657 -0.0089466395 -0.010342375 -0.003791068
000220 44 2b 87 bb 91 f5 92 bb 31 f2 7e bb 74 c1 8d bb
       -0.0041250307 -0.00448484 -0.0038901682 -0.00432604
000230 ea 5c 9c bb fe 45 63 bb a9 25 90 bb 23 51 9c bb
       -0.0047718184 -0.003467917 -0.0043990207 -0.0047704144
000240 4d e7 1d 3c d3 e9 1c 3c fa 03 19 3c aa df 18 3c
       0.009637666 0.009577232 0.009339327 0.009330669
000250 60 83 13 3c 6c a1 0f 3c 9f f5 12 3c 82 4b 07 3c
       0.00900349 0.008766513 0.008969693 0.008257749
000260 5a 4a 03 3c a7 82 96 3c a1 7b 94 3c c7 10 92 3c
       0.008013332 0.018372847 0.018125357 0.017830266
000270 ae 9e 97 3c 9e 11 93 3c 9d 54 90 3c b0 c3 95 3c
       0.018508282 0.017952736 0.017618472 0.018281788
000280 a1 71 8d 3c aa 6f 8b 3c 12 29 e3 bc 87 8a e1 bc
       0.017266097 0.017021019 -0.027729545 -0.027531875
000290 29 08 e1 bc 6b 38 cb bc 37 6d cc bc 4f 37 c5 bc
       -0.027469711 -0.024807176 -0.024954421 -0.024074225
0002a0 5a 8d bc bc ce 8e c1 bc b7 2e b1 bc 3e 2e fa bc
       -0.02301662 -0.023627665 -0.02162872 -0.030539628
0002b0 c5 d2 f3 bc f2 f0 ee bc c0 de e2 bc a3 c0 e0 bc
       -0.029763589 -0.029167626 -0.027694106 -0.027435606
0002c0 38 7f d3 bc 8c 36 d1 bc c1 f1 d2 bc fd 18 bd bc
       -0.025817499 -0.025538705 -0.025750043 -0.023083204
0002d0 e8 5b f7 bc 39 25 ef bc 0d 9b e9 bc 83 4d e7 bc
       -0.030195192 -0.029192554 -0.028516317 -0.028235203
0002e0 31 2a e2 bc ee ad d9 bc f3 ff d4 bc 9e 36 d9 bc
       -0.027608009 -0.026572194 -0.026000952 -0.026515301
0002f0 b0 16 c5 bc 99 9f 39 bb 41 89 3e bb 7a 85 31 bb
       -0.02405867 -0.0028323887 -0.002907351 -0.0027087615
000300 70 de 3d bb 29 8c 40 bb 6d 19 2a bb 04 20 41 bb
       -0.0028971694 -0.0029380417 -0.0025955096 -0.0029468546
000310 c5 c3 3b bb 4c df 1d bb ff 05 f5 3a e7 00 ec 3a
       -0.0028650623 -0.0024089394 0.0018693804 0.001800564
000320 46 c5 01 3b eb 72 f5 3a 07 aa f0 3a 90 00 0f 3b
       0.0019801422 0.0018726265 0.0018361219 0.0021820404
000330 19 82 f9 3a 8a 3f 00 3b 7f ec 1f 3b c6 88 08 3a
       0.0019035965 0.0019569122 0.0024402437 0.0005208369
000340 79 e9 de 39 7f f8 2b 3a 9b db 0b 3a 33 fb f2 39
       0.0004251709 0.0006560161 0.0005335153 0.00046344995
000350 c1 9a 56 3a dc d0 0d 3a 93 69 18 3a b7 17 8a 3a
       0.0008186512 0.00054098456 0.00058140716 0.0010535632
