models/checkpoints/best_model/mosNet/0/model_best.pth.tar (torch_old, 348181 bytes, 68 tensors)

conv1.0.weight f4 [8, 3, 3, 3]
-0.15928659 0.09564431 -0.10692875 0.1264515 0.115903415 0.13319004 0.100253224 -0.030939313
0.08902079 0.03454362 0.08526534 0.02510563 0.097581774 -0.023262968 -0.038283408 -0.13218987
-0.19792555 -0.13965781 0.054266505 0.17106955 -0.027575787 0.14716873 0.07307534 0.09290585
0.09745176 0.13393728 0.052843302 0.18400219 0.15152824 -0.076691456 0.19357008 0.07381368
0.048092023 -0.020257184 -0.10412923 0.18613797 -0.028167048 -0.023382878 -0.012572588 0.05726393
0.014904281 -0.010939196 -0.09124325 0.029077101 0.14241482 -0.05225903 -0.039709326 -0.13970393
-0.23910493 -0.051954426 -0.052570313 0.06989045 -0.16489369 0.07482367 -0.055457436 -0.044708475
0.035203945 -0.06290804 -0.07404502 0.06896161 0.10262651 0.06797998 -0.056237523 -0.010681093
-0.15532956 -0.012638155 -0.06505419 0.17750584 -0.033925634 -0.061762866 0.15987732 0.055741973
-0.04533674 -0.1920871 -0.109157585 0.005232453 -0.030456733 0.013267305 -0.040687226 0.17526305
0.10742907 -0.07204314 -0.05432847 0.15637285 0.119437 0.15186253 -0.03811565 -0.021249078
0.045142483 -0.20307373 0.037630286 -0.037581228 -0.18988362 -0.19812602 -0.10207166 0.039351653
-0.11098456 0.06040026 0.016279202 -0.024149833 -0.19941975 -0.015942883 0.015237933 0.097105
-0.005823867 0.011257768 -0.008302729 -0.14513198 0.107556954 0.06327829 -0.07197913 0.12967716
0.032597005 -0.15449212 -0.16029872 -0.06498265 0.20249066 0.051843304 0.044417914 -0.119389534
-0.07238039 0.14566846 0.058974512 0.022826342 -0.10154239 -0.009251977 0.031401616 -0.11280192
0.0074447035 0.09152444 0.17735459 -0.13581038 -0.15510368 -0.10269359 0.19404314 -0.19034894
-0.18769199 -0.1430808 -0.029725054 -0.1368396 0.12089748 0.21953699 0.13300158 -0.12406374
-0.030425254 -0.072021104 -0.001896622 0.011215715 -0.10714981 0.06468228 -0.058349542 0.16333538
-0.1443347 -0.03969398 0.07912724 0.08701644 -0.07027136 0.023457877 -0.077442646 0.09202889
0.072022244 -0.17945166 -0.103539586 0.08094434 -0.031638175 -0.031492405 0.07742519 -0.10119718
0.16327564 -0.08056156 0.1532222 0.10737322 0.1404742 0.053939003 0.18651296 -0.1551734
-0.16487013 0.1438004 -0.13891001 -0.17221686 0.0427026 0.01393738 0.1920402 -0.13783374
0.10090498 -0.037773047 0.025079222 -0.18873484 -0.20909023 0.071338795 0.052763034 0.16484354
0.060010612 -0.045734424 0.18551028 -0.05828556 0.11081527 0.10079376 0.14436914 -0.0045056064
-0.12114994 0.14925215 0.040904902 0.14409354 0.20012905 0.12758556 0.03102155 0.12283694
-0.0809817 0.10615701 0.18237248 0.17652975 0.06273411 0.13472016 0.16057895 -0.0716725
00000000: 061c 23be 2ae1 c33d 76fd dabd 817c 013e
00000010: c55e ed3d f862 083e 9051 cd3d 7174 fdbc
00000020: 8850 b63d 9c7d 0d3d 989f ae3d 52aa cd3c
00000030: f4d8 c73d fb91 bebc 10cf 1cbd c85c 07be
00000040: ffac 4abe 7502 0fbe 8e46 5e3d db2c 2f3e
00000050: 9ee6 e1bc 66b3 163e 86a8 953d 6c45 be3d
00000060: ca94 c73d db26 093e 3872 583d 126b 3c3e
00000070: 382a 1b3e 6910 9dbd 3c37 463e a02b 973d
00000080: 24fc 443d 65f2 a5bc b541 d5bd f49a 3e3e
00000090: 95be e6bc 738d bfbc 42fd 4dbc 958d 6a3d
000000a0: 1631 743c 503a 33bc bedd babd 1a33 ee3c
000000b0: 31d5 113e 910d 56bd 3fa6 22bd 8c0e 0fbe
000000c0: ecd7 74be 2ace 54bd f853 57bd b922 8f3d
000000d0: e4d9 28be 273d 993d 5627 63bd 3c20 37bd
000000e0: 0332 103d eed5 80bd eaa4 97bd bf3b 8d3d
000000f0: d92d d23d 1639 8b3d 5159 66bd c0ff 2ebc
00000100: b60e 1fbe 4410 4fbc 223b 85bd 17c4 353e
00000110: 9bf5 0abd 0ffb 7cbd e1b6 233e b251 643d
00000120: 04b3 39bd 7bb2 44be 038e dfbd ff74 ab3b
00000130: 6680 f9bc 1c5f 593c a6a7 26bd 2878 333e
00000140: c603 dc3d 5b8b 93bd 8887 5ebd 3420 203e
00000150: 639b f43d da81 1b3e 281f 1cbd 8c12 aebc
00000160: 53e7 383d 8ff2 4fbe 3722 1a3d c6ee 19bd
00000170: da70 42be 8ce1 4abe f20a d1bd 332f 213d
00000180: df4b e3bd 4366 773d f65b 853c dfd5 c5bc
00000190: b134 4cbe a69a 82bc 86a8 793c fcde c63d
000001a0: 23d6 bebb 8072 383c 2b08 08bc 7a9d 14be
000001b0: d246 dc3d 0c98 813d cb69 93bd 17ca 043e
000001c0: 7084 053d 2f33 1ebe 5925 24be a015 85bd
000001d0: b659 4f3e a559 543d 8fef 353d 8082 f4bd
000001e0: 2b3c 94bd 1d2a 153e 428f 713d 4ffe ba3c
000001f0: 75f5 cfbd 9b95 17bc fb9e 003d b104 e7bd
00000200: b3f2 f33b 2a71 bb3d 719c 353e e011 0bbe
00000210: 80d3 1ebe 0451 d2bd 3fb3 463e d5ea 42be
00000220: 5432 40be c683 12be f581 f3bc ae1f 0cbe
00000230: 1999 f73d 4ece 603e 9131 083e 2115 febd
00000240: 623e f9bc cd7f 93bd 1398 f8ba 1ec2 373c
00000250: 5c71 dbbd 2578 843d eeff 6ebd 6441 273e
00000260: 7acc 13be 2896 22bd 760d a23d ad35 b23d
00000270: 6eea 8fbd bc2a c03c 409a 9ebd a579 bc3d
00000280: 6680 933d 2dc2 37be 900c d4bd 25c6 a53d
00000290: 0897 01bd 2efe 00bd 1991 9e3d 7840 cfbd
000002a0: bb31 273e 76fd a4bd 48e6 1c3e 7ee6 db3d
000002b0: 78d8 0f3e 25ef 5c3d 41fd 3e3e c7e5 1ebe
000002c0: b7d3 28be 6940 133e 6d3e 0ebe 9e59 30be
000002d0: ece8 2e3d 9c59 643c 30a6 443e 4a24 0dbe
000002e0: 45a7 ce3d e9b7 1abd f172 cd3c b543 41be
000002f0: c01b 56be 131a 923d 0d1e 583d bfcc 283e
00000300: b0cd 753d 0554 3bbd 68f6 3d3e d7bc 6ebd
00000310: 1ef3 e23d f56c ce3d 81d5 133e c4a3 93bb
00000320: 761d f8bd 8ed5 183e e68b 273d 428d 133e
00000330: a1ee 4c3e caa5 023e e820 fe3c ef91 fb3d
00000340: bcd9 a5bd d968 d93d dabf 3a3e 37c4 343e
00000350: be7a 803d 15f4 093e cf6e 243e 08c9 92bd

conv1.0.bias f4 [8]
-0.11482592 0.117641844 0.066885956 0.14233208 0.030958652 0.12511799 0.18738912 0.016472258
00000000: da29 ebbd 35ee f03d 81fb 883d 80bf 113e
00000010: 009d fd3c ee1e 003e efe2 3f3e d4f0 863c

conv1.2.weight f4 [8]
0.42219475 0.6922175 0.90970665 0.031060277 0.7686729 0.6611662 0.5430805 0.45833084
00000000: e929 d83e 2b35 313f 89e2 683f 1f72 fe3c
00000010: bfc7 443f 3042 293f 5307 0b3f 57aa ea3e

conv1.2.bias f4 [8]
0.030140914 0.020991908 -0.071798466 0.04671404 -0.041723937 0.0064527625 -0.07595 0.14237508
00000000: 14ea f63c 39f7 ab3c 130b 93bd 3957 3f3d
00000010: b8e6 2abd b271 d33b ac8b 9bbd c6ca 113e

conv1.2.running_mean f4 [8]
0.034419693 0.28921452 0.09998923 0.42467532 0.031007787 0.24209404 0.2596042 0.1492423
00000000: aafb 0c3d ed13 943e 27c7 cc3d 0b6f d93e
00000010: 0b04 fe3c 80e7 773e d7ea 843e f9d2 183e

conv1.2.running_var f4 [8]
0.012333245 0.029839085 0.0023598147 0.055517305 0.0012439339 0.03969783 0.0038052385 0.12746349
00000000: 6111 4a3c 1971 f43c 1fa7 1a3b 1d66 633d
00000010: 7f0b a33a 319a 223d 4f61 793b ca85 023e

conv2.0.weight f4 [8, 8, 5, 5]
-0.07210849 -0.0024335429 -0.07476356 -0.073891155 -0.082030006 -0.018696852 -0.037571765 0.0019753333
-0.025321385 0.020112492 -0.021835573 -0.06364076 -0.08178821 -0.047816355 -0.049046695 0.009536352
-0.08007885 -0.041652545 -0.02911002 0.019446602 -0.047158357 -0.025041547 -0.0123846 0.058509693
0.044968795 -0.020715151 -0.032328803 -0.10932644 -0.09057204 -0.12217107 -0.1029485 0.038932968
-0.062105656 -0.028281555 -0.044375673 -0.05948167 -0.05543447 0.0411293 -0.062054984 -0.0085358005
0.056254577 0.070308864 0.08422009 0.10756669 0.029665805 0.03609421 0.07217726 0.021119822
0.10186504 0.031577095 0.052268825 -0.014348415 0.0005393373 -0.020938933 0.049197547 -0.028564278
-0.0705356 -0.01899803 0.021844923 0.02366943 0.03251035 0.02833282 -0.023708504 -0.09757288
0.0035021584 -0.0746999 -0.03328664 -0.090093665 0.114135824 0.14624204 0.046127718 0.06927342
0.060830027 -0.03395274 -0.14991891 0.020908762 -0.060574595 0.011515085 0.033135153 -0.07618406
-0.07497609 0.047787815 0.03499139 -0.030898156 0.0416381 -0.028707715 -0.022181518 -0.033329245
-0.06278213 -0.040697597 -0.006414755 -0.01082804 -0.0016802434 -0.03149683 0.05687492 -0.007519548
-0.07172022 0.04204382 0.011187905 0.03655306 -0.046446685 0.09859078 0.0020775958 0.020937286
0.04750654 -0.0616577 0.07225076 -0.043156046 -0.006894137 -0.015567898 -0.074359864 -0.055811
-0.021369655 0.072508246 0.011521791 -0.017872768 0.066748224 0.09273644 -0.07327896 -0.0923796
0.06270652 -0.010268744 0.038862664 -0.005746295 -0.013008801 0.04847492 -0.020595266 -0.043958765
-0.00817971 0.03247668 0.0070464807 -0.030443242 0.030723082 0.043799873 0.087916695 0.026446853
0.059116565 -0.087973975 -0.08425605 -0.0030006042 -0.06882466 0.04354716 -0.050553277 -0.0643984
0.0037509622 0.055495724 0.056036454 -0.050025474 0.0055472446 -0.029308753 -0.030470502 0.035311036
-0.091374345 0.029417085 -0.07413301 0.11491039 -0.058596924 -0.09107633 -0.04020804 -0.01943294
-0.0146578625 0.026654333 -0.042995065 0.05458741 -0.0017807243 0.0386577 0.10719929 0.12860084
-0.075451985 0.005281005 0.015648881 -0.0041420236 0.05743672 -0.066237226 0.13777019 -0.047906883
-0.06036893 -0.040256236 0.022987867 -0.046730127 0.032602936 -0.07566369 -0.063758425 -0.03857799
-0.007929298 -0.030456323 -0.038418557 0.012912694 0.03203063 -0.047100883 -0.016419051 0.03041694
0.0004914188 0.055220988 0.016507285 -0.022348415 0.046468094 0.08436386 -0.0061102565 0.086902246
-0.043752883 0.030218642 0.04696787 0.04200557 -0.034622166 -0.020751204 0.037906077 0.07565213
0.08502595 0.056188405 -0.07288241 0.032097917 0.056888487 0.048976973 0.049343493 -0.05622736
0.01644692 0.007411171 0.069462255 -0.052756265 -0.003848458 0.078174144 -0.011072952 0.029782122
-0.019139146 -0.056787048 -0.077608064 0.05969079 -0.05308431 -0.014033743 0.0049861134 -0.052533895
-0.047629558 -0.015443019 0.007899653 -0.030186815 -0.0011360535 0.0076534403 0.040077448 -0.021786481
-0.045300916 -0.08030549 -0.027294826 -0.05764025 0.037365414 -0.09212321 -0.028181925 -0.053705942
-0.08076266 -0.0738388 0.0696009 0.09518429 0.06901342 0.1004956 0.06703588 0.013318623
00000000: 9ead 93bd 137c 1fbb a31d 99bd 3f54 97bd
00000010: 59ff a7bd 242a 99bc dae4 19bd 9874 013b
00000020: cb6e cfbc f4c2 a43c 84e0 b2bc 1656 82bd
00000030: 9480 a7bd 15db 43bd 30e5 48bd 5c3e 1c3c
00000040: 6100 a4bd dc9b 2abd 2378 eebc 7b4e 9f3c
00000050: 1f29 41bd ee23 cdbc c7e8 4abc dca7 6f3d
00000060: 3331 383d d2b2 a9bc 356b 04bd 8ae6 dfbd
00000070: d57d b9bd d334 fabd aad6 d2bd 2d78 1f3d
00000080: 8062 7ebd b8ae e7bc 44c3 35bd 0da3 73bd
00000090: 410f 63bd 3277 283d 5e2d 7ebd bed9 0bbc
000000a0: 336b 663d 18fe 8f3d 957b ac3d ed4b dc3d
000000b0: b405 f33c 86d7 133d acd1 933d 7a03 ad3c
000000c0: 9e9e d03d fc56 013d d617 563d 9d15 6bbc
000000d0: 5062 0d3a 2088 abbc 5e83 493d a2ff e9bc
000000e0: f874 90bd c2a1 9bbc 20f4 b23c 64e6 c13c
000000f0: 9329 053d 3b1a e83c 5638 c2bc 4ad4 c7bd
00000100: 7884 653b 43fc 98bd 9257 08bd 0783 b8bd
00000110: 0bc0 e93d 79c0 153e 6bf0 3c3d 39df 8d3d
00000120: e828 793d 0712 0bbd 5884 19be da48 ab3c
00000130: 111d 78bd c4a9 3c3c bab8 073d 6306 9cbd
00000140: 108d 99bd 28bd 433d 2253 0f3d 211e fdbc
00000150: b68c 2a3d 712c ebbc 04b6 b5bc 3f84 08bd
00000160: eb93 80bd 86b2 26bd dd32 d2bb 1768 31bc
00000170: 9d3b dcba d202 01bd adf5 683d 8a66 f6bb
00000180: 0de2 92bd 2436 2c3d 7a4d 373c a9b8 153d
00000190: e13e 3ebd f6e9 c93d 4628 083b ac84 ab3c
000001a0: 3896 423d c98c 7cbd 35f8 933d 65c4 30bd
000001b0: 36e8 e1bb 7f10 7fbc fc49 98bd 139a 64bd
000001c0: 6a0f afbc 347f 943d e5c5 3c3c e969 92bc
000001d0: 4bb3 883d 9aec bd3d 4813 96bd 8431 bdbd
000001e0: 476c 803d 3c3e 28bc 752e 1f3d 6b4b bcbb
000001f0: de22 55bc a38d 463d 67b7 a8bc 1b0e 34bd
00000200: 3104 06bc 4406 053d 2ae6 e63b 1b64 f9bc
00000210: f9ae fb3c 7f67 333d ab0d b43d 12a7 d83c
00000220: 3624 723d b32b b4bd 708e acbd c9a5 44bb
00000230: f1f3 8cbd 825e 323d f410 4fbd 4fe3 83bd
00000240: b4d2 753b 7c4f 633d 7b86 653d 83e7 4cbd
00000250: a9c5 b53b e918 f0bc 469d f9bc 4ea2 103d
00000260: 7922 bbbd 19fc f03c 0cd3 97bd 2356 eb3d
00000270: 5403 70bd 3a86 babd 30b1 24bd d431 9fbc
00000280: 8827 70bc 305a da3c 981b 30bd 0c97 5f3d
00000290: 3167 e9ba 8957 1e3d 4d8b db3d f0af 033e
000002a0: 9286 9abd 480c ad3b 1532 803c d0b9 87bb
000002b0: c442 6b3d 62a7 87bd a113 0d3e 023a 44bd
000002c0: 6945 77bd b9e3 24bd 0d51 bc3c 1768 3fbd
000002d0: a88a 053d 91f5 9abd c793 82bd f403 1ebd
000002e0: e3e9 01bc 8a7f f9bc c75c 1dbd c48f 533c
000002f0: 8d32 033d dbec 40bd 3f81 86bc f22c f93c
00000300: 8fd2 003a 672f 623d 493a 873c 0614 b7bc
00000310: 5455 3e3d f6c6 ac3d 8c38 c8bb cef9 b13d
00000320: 3936 33bd 168d f73c 6261 403d 080e 2c3d
00000330: f9cf 0dbd 6efe a9bc 6743 1b3d 81ef 9a3d
00000340: 1622 ae3d d025 663d 5f43 95bd 1b79 033d
00000350: e703 693d 149c 483d 671c 4a3d a94e 66bd
00000360: b1bb 863c 69d9 f23b 3a42 8e3d f416 58bd
00000370: 6936 7cbb c419 a03d 546b 35bc a3f9 f33c
00000380: b3c9 9cbc 8999 68bd faf0 9ebd 547e 743d
00000390: ef6e 59bd c9ed 65bc 8d62 a33b c82d 57bd
000003a0: 3617 43bd b704 7dbc 8c6d 013c 574a f7bc
000003b0: a1e7 94ba b6c9 fa3b 4028 243d 9079 b2bc
000003c0: 748d 39bd 3477 a4bd 6699 dfbc 2f18 6cbd
000003d0: 7a0c 193d 18ab bcbd c8dd e6bc c3fa 5bbd
000003e0: e566 a5bd cc38 97bd eb8a 8e3d fbef c23d
000003f0: e856 8d3d a3d0 cd3d 1c4a 893d 5b36 5a3c

conv2.0.bias f4 [8]
-0.026114974 0.00091804244 0.017710026 0.07008004 -0.1733621 -0.025539262 -0.047165073 0.018943902
00000000: 12ef d5bc c9a8 703a 9e14 913c 2086 8f3d
00000010: d685 31be b737 d1bc 2a30 41bd 3e30 9b3c

conv2.2.weight f4 [8]
0.48016375 0.73808813 0.090651244 0.21784513 0.5789758 0.98978037 0.48213506 0.92869073
00000000: 06d8 f53e 58f3 3c3f 5ca7 b93d cb12 5f3e
00000010: c237 143f 3f62 7d3f 68da f63e adbe 6d3f

conv2.2.bias f4 [8]
-0.10390881 0.06486042 -0.10679076 0.07624212 -0.038420755 -0.06524063 -0.0067766616 0.088000156
00000000: 24ce d4bd 8ad5 843d 1db5 dabd d424 9c3d
00000010: 155f 1dbd e19c 85bd c20e debb 6d39 b43d

conv2.2.running_mean f4 [8]
0.058573294 0.52846843 0.41609254 0.31591108 0.024485633 0.26128948 0.73609346 1.1949742
00000000: 8dea 6f3d b549 073f 150a d53e 19bf a13e
00000010: 1896 c83c bcc7 853e 9f70 3c3f eaf4 983f

conv2.2.running_var f4 [8]
0.015148861 0.5178509 0.2896458 0.22543702 0.017092677 0.12610094 0.8446302 2.4188333
00000000: ee32 783c e091 043f 744c 943e f6d8 663e
00000010: f105 8c3c 9b20 013e af39 583f 2ace 1a40

conv3.0.weight f4 [16, 8, 5, 5]
-0.029769834 -0.053653345 -0.00015707515 -0.060113616 -0.06207991 0.0008157358 -0.022448046 0.039330024
-0.01409154 -0.07950115 0.085930295 0.017759308 0.032093007 -0.1031596 -0.065209925 -0.03398939
-0.046003543 -0.055217616 -0.06353813 -0.109622054 -0.01095876 -0.06428244 -0.006415687 -0.09217331
-0.04693519 0.00474016 -0.018812926 0.079680204 0.048955202 0.014063098 0.058515463 0.052363843
0.093430854 0.10175052 -0.054402757 0.032639284 0.07807465 0.07121935 0.15876739 0.076488145
0.002335953 0.09771168 0.045743067 0.12447573 0.027579548 -0.049202424 0.029407866 0.03229478
0.0033264626 -0.043979652 0.019600952 -0.02003593 -0.06415981 0.033149827 0.04451124 -0.083852164
-0.004551412 -0.043035664 -0.058460243 -0.06029419 0.011456651 -0.06057678 0.009396509 -0.052347183
-0.031809088 0.017934656 -0.0054096505 -0.05156085 -0.05910719 -0.011711475 -0.060820878 -0.03562654
-0.05393539 -0.086745165 -0.0037590095 0.09508371 0.02126039 0.023427209 0.101422794 0.049833145
0.08495701 0.060853582 0.07602818 0.11504314 0.08732237 -0.0211546 0.03943903 -0.004542057
-0.008012311 0.0011692601 -0.022965316 0.049235504 0.02893453 0.057495806 0.10317511 -0.014654688
0.07563503 -0.020941282 -0.024737397 0.10414315 -0.01819785 -0.060275186 0.03276087 -0.030328322
-0.05019952 -0.00034170653 0.0010310849 0.028377473 0.004064727 0.0024310588 0.0077716354 0.057247985
0.05596041 0.013893342 0.00053776335 -0.03224339 0.023900477 0.021101704 -0.053264536 -0.05840072
-0.038140714 0.020908644 0.020786088 0.04314964 -0.07485318 -0.040886886 -0.026873343 -0.06640026
-0.09703398 -0.09446738 0.011375186 -0.014702549 -0.0046879495 0.038397714 0.013499339 -0.014198518
-0.023702214 -0.0489741 -0.08776679 -0.014258414 -0.037008166 0.024089782 -0.069638796 0.007842645
-0.055014085 -0.060710497 0.025583908 0.025893876 0.06643841 0.098754674 -0.012509657 -0.052488904
0.024101544 -0.036119096 0.04005877 -0.022549603 0.012484487 0.08568377 0.0076341536 0.061028462
0.06579142 0.008641745 0.09954314 0.06330182 0.06500786 -0.0042776656 0.025358602 0.05831183
0.07483795 -0.027950209 0.063160576 -0.026000148 0.053829104 -0.039939966 0.015272325 -0.089402065
0.010287751 -0.102556296 -0.0048798383 0.0007441929 -0.059988767 0.014939893 -0.073825225 -0.030385524
-0.032231335 -0.06399766 -0.09154017 -0.072072856 -0.09637129 0.04054317 -0.0927103 -0.09626975
-0.045005027 -0.07490402 0.04348918 0.02231701 0.022016952 0.046926342 -0.022366552 -0.05174836
0.014044077 0.02409261 0.024468048 0.061327804 -0.04239073 0.13214572 0.052852992 0.14215416
0.10069814 0.03330546 0.05005147 0.021467967 0.035620667 -0.0077524865 0.00796438 -0.036327876
-0.05616577 -0.023147374 0.006774687 -0.052009135 -0.103863925 -0.06173165 -0.09247666 -0.018549152
-0.021800619 -0.071462475 -0.052219786 -0.02845591 -0.015637621 0.05314716 -0.013340938 -0.013658392
-0.085397065 -0.027716003 -0.0562199 -0.037963126 0.010672001 -0.013602149 -0.046283975 -0.05703782
0.051473454 0.07037881 -0.054386403 0.045510154 -0.10860586 0.006086051 0.053126834 -0.02603339
0.027973153 -0.030116878 -0.0120462915 -0.017898463 -0.01591785 -0.06725772 -0.072160035 0.05487563
00000000: dedf f3bc 9cc3 5bbd 8ab4 24b9 b239 76bd
00000010: 8147 7ebd 1ad7 553a f7e4 b7bc 8518 213d
00000020: 34e0 66bc 80d1 a2bd 39fc af3d f87b 913c
00000030: f573 033d 5745 d3bd c88c 85bd 7538 0bbd
00000040: 366e 3cbd de2b 62bd 4720 82bd 8781 e0bd
00000050: 5f8c 33bc 83a6 83bd af3a d2bb 5cc5 bcbd
00000060: 1d3f 40bd 5853 9b3b 911d 9abc 602f a33d
00000070: 4085 483d e868 663c e9ad 6f3d 787b 563d
00000080: ad58 bf3d 9462 d03d 6dd5 5ebd c5b0 053d
00000090: 9ae5 9f3d 73db 913d eb93 223e d1a5 9c3d
000000a0: ca16 193b 101d c83d 155d 3b3d 22ed fe3d
000000b0: 81ee e13c 7b88 49bd c4e8 f03c 8847 043d
000000c0: c800 5a3b 0224 34bd 2d92 a03c 6422 a4bc
000000d0: 3866 83bd 1dc8 073d 6b51 363d afba abbd
000000e0: 0324 95bb 2a46 30bd 0274 6fbd 0af7 76bd
000000f0: adb4 3b3c 5c1f 78bd d1f3 193c 006a 56bd
00000100: 3f4a 02bd b3eb 923c 7043 b1bb 7831 53bd
00000110: 621a 72bd 7de1 3fbc 501f 79bd 23ed 11bd
00000120: 5beb 5cbd 73a7 b1bd b759 76bb 40bb c23d
00000130: 452a ae3c 6bea bf3c c1b6 cf3d d71d 4c3d
00000140: f1fd ad3d 9b41 793d aab4 9b3d bd9b eb3d
00000150: 12d6 b23d 694c adbc d28a 213d 89d5 94bb
00000160: 1146 03bc dc41 993a c221 bcbc 2bab 493d
00000170: 1c08 ed3c b980 6b3d 794d d33d 371a 70bc
00000180: 8ae6 9a3d 0d8d abbc 15a6 cabc 0149 d53d
00000190: a813 95bc 1de3 76bd 4330 063d 1a73 f8bc
000001a0: 039e 4dbd 1327 b3b9 7825 873a e077 e83c
000001b0: 6731 853b 6652 1f3b 34a9 fe3b dd7c 6a3d
000001c0: be36 653d e6a0 633c b0f8 0c3a a511 04bd
000001d0: efca c33c 7bdd ac3c ea2b 5abd 9835 6fbd
000001e0: 7039 1cbd 9b48 ab3c 9647 aa3c adbd 303d
000001f0: a04c 99bd 0279 27bd 7c25 dcbc dcfc 87bd
00000200: c0b9 c6bd 1d78 c1bd fd5e 3a3c f6e2 70bc
00000210: 5f9d 99bb ec46 1d3d 552c 5d3c e7a0 68bc
00000220: 252b c2bc 1199 48bd 13bf b3bd 1f9c 69bc
00000230: e095 17bd ef57 c53c c99e 8ebd 707e 003c
00000240: 7356 61bd 92ab 78bd 5895 d13c 651f d43c
00000250: dc10 883d e43f ca3d 4ef5 4cbc 9bfe 56bd
00000260: 9a70 c53c 9ef1 13bd aa14 243d f2b9 b8bc
00000270: bc8b 4c3c f97a af3d ec27 fa3b fbf8 793d
00000280: a7bd 863d 1b96 0d3c 46dd cb3d 62a4 813d
00000290: d722 853d a92b 8cbb d8bc cf3c 63d8 6e3d
000002a0: a444 993d d6f7 e4bc 555a 813d 43fe d4bc
000002b0: e87b 5c3d 1798 23bd c638 7a3c 6e18 b7bd
000002c0: f58d 283c 0909 d2bd 0de7 9fbb f115 433a
000002d0: c8b6 75bd 74c6 743c ae31 97bd 10eb f8bc
000002e0: 0105 04bd 3511 83bd 6a79 bbbd ef9a 93bd
000002f0: 505e c5bd 9810 263d e6de bdbd 1329 c5bd
00000300: 3157 38bd 4767 99bd b621 323d 2ad2 b63c
00000310: e55c b43c d635 403d 0f3a b7bc 17f6 53bd
00000320: 2119 663c de5d c53c 3771 c83c dd32 7b3d
00000330: e7a1 2dbd 3551 073e 617c 583d dc90 113e
00000340: d43a ce3d 4e6b 083d c502 4d3d 97dd af3c
00000350: fae6 113d 9208 febb 087d 023c 8acc 14bd
00000360: 140e 66bd 909f bdbc 32fe dd3b 8807 55bd
00000370: 9cb6 d4bd 54da 7cbd 6764 bdbd 64f4 97bc
00000380: 3697 b2bc eb5a 92bd 6ae4 55bd 5e1c e9bc
00000390: 781a 80bc d6b0 593d f393 5abc 73c7 5fbc
000003a0: a8e4 aebd ac0c e3bc d646 66bd 397f 1bbd
000003b0: 9ed9 2e3c 8cdb 5ebc 4494 3dbd 7da0 69bd
000003c0: d4d5 523d c422 903d 47c4 5ebd db68 3a3d
000003d0: c06c debd 7f6d c73b 869b 593d fa43 d5bc
000003e0: f427 e53c acb7 f6bc cf5d 45bc cc9f 92bc
000003f0: 2766 82bc 6abe 89bd a4c8 93bd 45c5 603d

conv3.0.bias f4 [16]
-0.033844296 -0.051996533 -0.13923958 -0.13852203 0.03216311 0.037225015 0.012725491 0.06509025
-0.011270292 -0.08501397 -0.065722965 -0.03551049 -0.022447817 -0.084049806 -0.03742401 -0.043676753
00000000: 51a0 0abd 51fa 54bd d294 0ebe b8d8 0dbe
00000010: 77bd 033d 4279 183d 947e 503c 094e 853d
00000020: 08a7 38bc ce1b aebd c399 86bd 7373 11bd
00000030: 7ce4 b7bc 4e22 acbd eb49 19bd 65e6 32bd

conv3.2.weight f4 [16]
0.798024 0.9179912 0.85212815 0.74851334 0.95099115 0.47516492 0.6835033 0.30657074
0.92357373 0.7500789 0.95700425 0.11151717 0.80445933 0.3277142 0.9553923 0.07403578
00000000: 4d4b 4c3f 7901 6b3f 1225 5a3f 929e 3f3f
00000010: 2874 733f d148 f33e 13fa 2e3f d7f6 9c3e
00000020: 546f 6c3f 2c05 403f 3bfe 743f 1d63 e43d
00000030: 0cf1 4d3f 28ca a73e 9794 743f 12a0 973d

conv3.2.bias f4 [16]
-0.011163146 0.02938933 -0.02090901 -0.0064514205 -0.0076846913 0.09730064 0.18894291 0.11551925
0.08979351 0.13728224 0.13142575 0.13506076 -0.038363732 0.07742077 0.008216186 0.17422614
00000000: a1e5 36bc e4c1 f03c 5f49 abbc 7066 d3bb
00000010: ddcf fbbb 8f45 c73d 407a 413e 5b95 ec3d
00000020: a9e5 b73d b793 0c3e 7994 063e 5e4d 0a3e
00000030: 4a23 1dbd c88e 9e3d 2f9d 063c 5668 323e

conv3.2.running_mean f4 [16]
0.7356953 0.1584082 0.21442826 0.30877194 0.8188718 0.6052634 0.67619336 0.5561873
0.16240047 0.30436504 0.16336486 0.8611322 0.3316742 0.20721804 0.17852275 0.654562
00000000: 8756 3c3f c235 223e 1593 5b3e 5b17 9e3e
00000010: 95a1 513f 8bf2 1a3f 021b 2d3f 4a62 0e3f
00000020: 4f4c 263e bcd5 9b3e 1e49 273e 2973 5c3f
00000030: 33d1 a93e f730 543e abce 363e 6091 273f

conv3.2.running_var f4 [16]
1.1058568 0.18050273 0.34878618 0.32833382 1.0451708 0.5307577 0.9578181 0.5987618
0.15036272 0.40918034 0.08837256 1.1487778 0.49131665 0.18785402 0.19549125 0.97524077
00000000: b78c 8d3f b5d5 383e 1a94 b23e 5f1b a83e
00000010: 28c8 853f bddf 073f 9133 753f 7448 193f
00000020: aff8 193e 1680 d13e acfc b43d 270b 933f
00000030: db8d fb3e ce5c 403e dc2e 483e 61a9 793f

conv4.0.weight f4 [16, 16, 5, 5]
0.013044656 -0.012983181 -0.014675858 -0.054224096 0.0102194 -0.04709966 -0.086807154 -0.000377161
0.00029283605 -0.002848642 -0.008777383 -0.054330114 -0.07824592 -0.039230697 0.0015174367 -0.07190747
-0.085588 -0.003431105 -0.049530722 0.011832566 -0.04765505 0.0024444188 -0.01947569 0.033620384
-0.06993755 -0.017785415 0.01915548 0.028499762 -0.014203962 -0.073752254 -0.024796253 0.0077615045
-0.03791544 -0.048150737 -0.03731222 -0.02062685 -0.030638091 -0.034733474 -0.024037704 -0.05017456
0.029641002 0.039253004 -0.006586273 -0.013649861 -0.014056746 0.026678136 0.0266467 0.032370284
0.07278395 0.092138276 -0.04866477 -0.028415726 -0.052261997 -0.04816624 -0.03345182 -0.01571838
-0.07872514 -0.044480994 -0.057576664 -0.07428965 -0.030556735 -0.003581001 -0.040460598 -0.08592295
0.020178754 0.16350977 0.046939682 -0.02007827 0.0041351975 -0.004943309 0.16644487 0.13716094
0.05192599 0.08875079 0.05644681 0.007479728 0.018594185 0.009956054 -0.07223307 -0.07406051
0.022722831 -0.011822252 -0.06860329 -0.070848264 -0.05110939 -0.018796686 0.012100735 -0.019221619
-0.07129552 -0.017381737 -0.06773307 -0.055731654 0.020882236 0.020234073 -0.023414627 0.09388123
0.025198804 0.037672456 -0.013916717 -0.0070011695 -0.05685048 0.006802114 0.0067014424 -0.020793838
-0.008489455 0.040639035 -0.02969821 -0.04518107 -0.043473385 0.06762991 0.054164775 0.0923473
0.040237255 -0.06295874 -0.0034809718 0.071355104 0.03220682 -0.014482611 -0.029031578 -0.020761838
0.05936583 0.075866394 0.020042298 0.0754237 0.013893379 0.021579465 -0.042378064 -0.0031176363
-0.034466486 -0.020979038 0.03709226 -0.053105775 -0.05193783 -0.03867821 -0.011573802 0.055230837
0.03686843 0.024147889 0.030701544 -0.0580848 -0.043481044 0.0071895896 -0.03308855 0.027692957
-0.045326088 -0.057377312 -0.08045771 -0.0771436 0.009080777 -0.049647365 0.0035383326 0.020158371
0.00569755 0.013787894 8.288882e-05 0.031189837 -0.08413178 -0.0989728 -0.023279702 0.014222252
0.038380176 0.008794983 -0.014546675 -0.01851009 -0.0104814945 0.049030725 0.0039710384 0.017406544
0.020520266 0.008274606 -0.0531703 -0.009022813 0.011967258 0.042591114 0.013833889 -0.037378125
0.03115577 -0.0016140227 0.009284334 -0.037097067 -0.05333741 0.021430844 -0.051188815 -0.020297643
-0.013796251 -0.004809563 0.030864995 0.024693206 -0.033948574 -0.011831518 0.032228913 0.026260177
0.05329907 -0.03171432 -0.032218855 0.04754836 0.044041142 0.01926315 -0.0025057876 0.014475753
-0.0048704473 -0.0071263593 -0.051968377 -0.05069961 -0.060725044 -0.04856356 -0.0789585 -0.004617504
-0.045491498 -0.03448314 0.06369271 -0.0031357931 -0.07703461 -0.0723286 -0.0051560216 0.0761581
0.0066661825 -0.058464035 0.0041601243 -0.008139779 0.0403313 -0.011333994 -0.098842666 -0.024477692
-0.005315694 -0.009151195 -0.06842104 -0.06051894 -0.11155704 -0.038097665 -0.019185122 -0.022318047
-0.051354617 -0.06943741 -0.0330212 0.03742856 0.04263295 0.07142768 -0.03305734 -0.012123302
-0.03154772 -0.09474822 -0.042348545 -0.012070518 -0.016130898 -0.05909066 -0.010976079 -0.06297673
-0.071730204 -0.058967296 0.04322247 0.0015823729 0.05881085 0.06995533 0.023983018 0.047279205
00000000: 41b9 553c 68b7 54bc 0373 70bc 161a 5ebd
00000010: 456f 273c 93eb 40bd f3c7 b1bd b1bd c5b9
00000020: ca87 9939 48b0 3abb 03cf 0fbc 4189 5ebd
00000030: 663f a0bd 5eb0 20bd bae4 c63a 3944 93bd
00000040: c348 afbd 64dc 60bb bae0 4abd 61dd 413c
00000050: f131 43bd 8b32 203b 7b8b 9fbc 87b5 093d
00000060: 6b3b 8fbd b8b2 91bc f4eb 9c3c 5578 e93c
00000070: bcb7 68bc 6c0b 97bd 8321 cbbc 3854 fe3b
00000080: 384d 1bbd b539 45bd b3d4 18bd a4f9 a8bc
00000090: bcfc fabc b044 0ebd b8ea c4bc d783 4dbd
000000a0: b0d1 f23c c2c7 203d aad1 d7bb aba3 5fbc
000000b0: 444e 66bc 1b8c da3c 2e4a da3c b496 043d
000000c0: c00f 953d feb2 bc3d b654 47bd 19c8 e8bc
000000d0: ad10 56bd f749 45bd c704 09bd d5c3 80bc
000000e0: a53a a1bd b431 36bd 82d5 6bbd 2c25 98bd
000000f0: 1e52 fabc 3aaf 6abb 03ba 25bd 5ff8 afbd
00000100: ea4d a53c 1b6f 273e d343 403d 2f7b a4bc
00000110: 8d80 873b 7bfb a1bb 8670 2a3e eb73 0c3e
00000120: 59b0 543d f9c2 b53d c534 673d 8218 f53b
00000130: d552 983c b81e 233c efee 93bd 09ad 97bd
00000140: 3b25 ba3c 1eb2 41bc e27f 8cbd e518 91bd
00000150: 1458 51bd 82fb 99bc 2942 463c a876 9dbc
00000160: 6303 92bd 2564 8ebc a3b7 8abd e046 64bd
00000170: 3911 ab3c edc1 a53c 08d0 bfbc cd44 c03d
00000180: b96d ce3c 6f4e 1a3d f102 64bc 116a e5bb
00000190: 0ddc 68bd 45e4 de3b c697 db3b d757 aabc
000001a0: 5b17 0bbc 1e75 263d a949 f3bc c90f 39bd
000001b0: 2611 32bd 8d81 8a3d e2db 5d3d 9520 bd3d
000001c0: d2cf 243d 83f0 80bd 0421 64bb a022 923d
000001d0: 4ceb 033d 7948 6dbc a2d3 edbc bb14 aabc
000001e0: 9629 733d d75f 9b3d bf2f a43c be77 9a3d
000001f0: 0ea1 633c 6bc7 b03c 9f94 2dbd 4251 4cbb
00000200: bb2c 0dbd 3bdc abbc 0eee 173d 7185 59bd
00000210: c3bc 54bd 0b6d 1ebd 0ba0 3dbc bb39 623d
00000220: 5a03 173d cbd1 c53c ce81 fb3c 54ea 6dbd
00000230: 2e19 32bd a696 eb3b dc87 07bd 57dc e23c
00000240: d9a7 39bd 7904 6bbd 03c7 a4bd 77fd 9dbd
00000250: 8ac7 143c 095b 4bbd 5fe3 673b 2b23 a53c
00000260: 83b2 ba3b 9ee6 613c 99d4 ad38 d481 ff3c
00000270: 484d acbd 40b2 cabd 13b5 bebc 7304 693c
00000280: 8834 1d3d d518 103c 2d55 6ebc 79a2 97bc
00000290: 93ba 2bbc 71d4 483d 7c1f 823b 2b98 8e3c
000002a0: 1e1a a83c 3792 073c 1ac9 59bd 6cd4 13bc
000002b0: 5112 443c 0574 2e3d 89a7 623c ce19 19bd
000002c0: 633a ff3c 9d8d d3ba 521d 183c 18f3 17bd
000002d0: 5478 5abd bd8f af3c 5dab 51bd 3e47 a6bc
000002e0: ac09 62bc 8a99 9dbb 96d8 fc3c 6849 ca3c
000002f0: a90d 0bbd fcd8 41bc 7702 043d 951f d73c
00000300: 2050 5a3d e0e6 01bd ebf7 03bd 12c2 423d
00000310: 7c64 343d c1cd 9d3c 2438 24bb b52b 6d3c
00000320: 4698 9fbb 3c84 e9bb cbdc 54bd 65aa 4fbd
00000330: d3ba 78bd 95ea 46bd feb4 a1bd 6e4e 97bb
00000340: 4b55 3abd 313e 0dbd 5371 823d e181 4dbb
00000350: 52c4 9dbd 0421 94bd d8f3 a8bb c7f8 9b3d
00000360: fe6f da3b fc77 6fbd a751 883b b55c 05bc
00000370: 6f32 253d 37b2 39bc 066e cabd 7185 c8bc
00000380: 462f aebb e5ee 15bc 5520 8cbd b5e2 77bd
00000390: 0478 e4bd 4c0c 1cbd 1e2a 9dbc 56d4 b6bc
000003a0: 3859 52bd 3335 8ebd 3d41 07bd b14e 193d
000003b0: e39f 2e3d ad48 923d 2267 07bd d0a0 46bc
000003c0: 2f38 01bd 5b0b c2bd ab75 2dbd 6cc3 45bc
000003d0: f224 84bc 0c09 72bd 03d5 33bc f2f9 80bd
000003e0: 49e7 92bd b187 71bd 0b0a 313d a067 cf3a
000003f0: a5e3 703d bd44 8f3d 0978 c43c d7a7 413d

conv4.0.bias f4 [16]
-0.1378897 -0.10415671 -0.10611816 -0.068377405 -0.07329489 0.02250528 -0.020155825 -0.012950155
-0.06451812 -0.14242546 -0.029388526 -0.1406888 -0.110734604 -0.10323874 -0.05853871 -0.11434018
00000000: f532 0dbe 1d50 d5bd 7a54 d9bd 7409 8cbd
00000010: a21b 96bd fe5c b83c d41d a5bc e32c 54bc
00000020: 1322 84bd fbd7 11be 35c0 f0bc ba10 10be
00000030: d3c8 e2bd d56e d3bd 49c6 6fbd 2f2b eabd

conv4.2.weight f4 [16]
0.6788541 0.83841527 0.30093154 0.38198388 0.40479 0.7505903 0.9598877 0.48679382
0.3975724 0.4512451 0.46824175 0.7622109 0.9252307 0.5461824 0.28598925 0.7517499
00000000: 62c9 2d3f 62a2 563f b313 9a3e 6493 c33e
00000010: a340 cf3e b026 403f 33bb 753f 0a3d f93e
00000020: 9c8e cb3e 9909 e73e 62bd ef3e 4120 433f
00000030: ebdb 6c3f 9cd2 0b3f 2f6d 923e ae72 403f

conv4.2.bias f4 [16]
-0.14708439 -0.14825551 -0.12065358 -0.14560512 -0.10510996 -0.17393011 -0.11769098 -0.020205248
-0.11764685 -0.22862962 -0.047362626 -0.1310316 -0.13853104 -0.1481632 -0.022124238 -0.16676229
00000000: 4a9d 16be 4bd0 17be 3919 f7bd 8219 15be
00000010: e443 d7bd bc1a 32be f807 f1bd 7a85 a5bc
00000020: d5f0 f0bd e21d 6abe 50ff 41bd 262d 06be
00000030: 15db 0dbe 18b8 17be e43d b5bc bcc3 2abe

conv4.2.running_mean f4 [16]
0.23964012 0.09717097 0.21939042 0.3825149 0.2882852 0.5052955 0.84660566 0.4255526
0.39534006 0.17456196 0.28893253 0.56663525 0.578068 0.3458164 0.3526754 0.13442497
00000000: 3864 753e 9301 c73d e2a7 603e fed8 c33e
00000010: 1e9a 933e 0c5b 013f 26bb 583f 08e2 d93e
00000020: 036a ca3e 5fc0 323e f7ee 933e 020f 113f
00000030: 44fc 133f d90e b13e df91 b43e b3a6 093e

conv4.2.running_var f4 [16]
0.8526149 0.3289899 0.3373022 0.50474036 0.2980775 0.9500265 2.9538097 0.64307505
1.1982844 0.31756392 0.3610448 0.8730793 2.945908 0.76598465 0.5507426 0.2539889
00000000: f844 5a3f 5d71 a83e e0b2 ac3e aa36 013f
00000010: 9d9d 983e f034 733f 380b 3d40 91a0 243f
00000020: 6261 993f bd97 a23e ddda b83e 2082 5f3f
00000030: c289 3c40 9217 443f 78fd 0c3f d50a 823e

full1.1.weight f4 [16, 1024]
-0.045153838 -0.08295855 0.0054965196 -0.0009164143 0.045038525 -0.003078489 -0.04584389 0.039422635
-0.040429346 -0.05298821 -0.087108456 -0.07242506 -0.03764051 -0.07160301 0.014943584 0.039797213
-0.0020967552 -0.02214243 0.102856964 0.1917905 0.08918858 0.12234877 0.0481126 -0.08835002
0.024606166 -0.07814628 0.021022191 0.081062816 0.11934585 -0.040976364 -0.01764938 -0.051627655
-0.016703324 0.0009764331 -0.057317648 0.09406178 0.13494083 -0.019787937 -0.0574891 -0.03351217
-0.09583423 0.027206788 -0.074530646 0.13210553 0.046732996 -0.0074959723 -0.029538535 -0.040119287
-0.014569488 0.025591396 -0.055190787 -0.012002716 0.0049032816 0.029761525 -0.04121536 -0.04308518
-0.04445828 0.0053216456 -0.00662496 -0.049471837 0.016217994 0.023645211 -0.018762616 -0.0001816074
0.016290946 0.05245974 0.023388332 -0.07121271 -0.063465424 -0.041977786 -0.02971017 0.04200233
-0.07943673 0.00014755953 0.037690256 -0.009215295 0.0053130123 -0.09291469 0.00027327085 -0.004626092
-0.046002686 0.03776785 0.034699623 0.034329075 0.051541694 0.029720156 0.001166833 -0.043562707
-0.010049438 0.008909906 0.10227749 0.11146187 0.10471371 0.039553534 -0.10185574 -0.0058727283
0.059668973 -0.12116943 0.085488126 0.14322127 0.08665497 -0.096083745 -0.029579433 -0.02791689
0.009208177 0.04214043 0.096000135 0.07020563 -0.0148205375 -0.014726605 -0.08004172 -0.035660088
0.022924501 -0.07641245 -0.021621104 0.042991888 0.009552115 0.056294356 0.011444767 -0.05926952
0.021988433 0.020561375 -0.036763128 -0.00063443626 0.011789393 0.008105245 -0.041786004 -0.041283086
0.007154224 0.07659453 0.07247412 -0.023570942 -0.055001188 -0.011655373 0.020346995 0.072700515
-0.01263969 0.045695394 -0.07961452 -0.046718862 -0.0383902 0.005714371 0.03192724 0.053082608
0.010136428 0.08346225 0.15280952 0.053580027 0.15523157 0.14634722 0.05183456 0.018371105
0.051042404 -0.03399139 -0.036119394 -0.13119644 -0.08435134 -0.029074086 -0.09196189 -0.020049535
0.02486321 -0.002300222 -0.024343288 0.08816658 0.1227034 0.025685579 -0.04245944 -0.01424611
-0.036915347 -0.15846525 -0.017159197 -0.01573451 0.015432697 -0.05665647 -0.033660475 -0.09313571
-0.024456866 -0.062975764 -0.021137862 -0.018413518 -0.06179745 -0.102657564 -0.047359515 -0.052900877
-0.057848413 -0.029397659 -0.02139717 -0.027901947 -0.004454362 -0.04439255 -0.080714814 -0.078923225
-0.094550475 0.06182245 0.0179191 0.07550589 0.01261244 -0.013961664 0.04219172 -0.0850908
-0.0405148 0.08177509 0.021261398 -0.0410071 0.0094682025 0.067091785 0.009139981 -0.059410237
-0.019813824 0.036244113 -0.04405277 -0.078322664 -0.08977996 -0.029602638 0.07374509 -0.06365118
0.1102291 0.036974628 -0.09829464 -0.13057308 -0.12412966 0.0292551 0.0004620933 0.005132636
0.080589995 0.050339404 -0.051029146 -0.10600722 -0.05597416 0.023616891 0.105267905 -0.008308205
0.0012728111 0.06323616 0.03449705 -0.04061554 -0.08697848 0.045070067 0.115121804 0.042370327
0.014421776 0.07341086 0.05797113 0.019594967 0.05058047 0.11304152 -0.016019106 -0.012752258
-0.07492972 0.025565976 -0.016566759 0.05674775 0.12899578 -0.027403528 -0.02857221 -0.048711285
00000000: 3bf3 38bd 2ce6 a9bd 261c b43b 863b 70ba
00000010: 517a 383d 7ac0 49bb cec6 3bbd a179 213d
00000020: 3e99 25bd 2a0a 59bd eb65 b2bd 9753 94bd
00000030: ef2c 1abd 99a4 92bd efd5 743c 6702 233d
00000040: b769 09bb 0b64 b5bc aca6 d23d bb64 443e
00000050: 81a8 b63d fe91 fa3d b811 453d dbf0 b4bd
00000060: df92 c93c 280b a0bd bb36 ac3c 4304 a63d
00000070: 996b f43d d5d6 27bd 6f95 90bc 8577 53bd
00000080: 69d5 88bc 51f7 7f3a e9c5 6abd 76a3 c03d
00000090: ee2d 0a3e 501a a2bc b179 6bbd 0f44 09bd
000000a0: bd44 c4bd c5e0 de3c 86a3 98bd ac46 073e
000000b0: 196b 3f3d c6a0 f5bb ccfa f1bc 1f54 24bd
000000c0: ddb4 6ebc 0ca5 d13c bc0f 62bd 0aa7 44bc
000000d0: b5ab a03b 71ce f33c 70d1 28bd 167a 30bd
000000e0: e319 36bd 3361 ae3b 3116 d9bb fba2 4abd
000000f0: 99db 843c 9ab3 c13c 0fb4 99bc dd6d 3eb9
00000100: 9774 853c 06e0 563d e398 bf3c f8d7 91bd
00000110: 29fa 81bd e6f0 2bbd be62 f3bc a30a 2c3d
00000120: b9af a2bd 36ba 1a39 1961 1a3d c0fb 16bc
00000130: c718 ae3b 0f4a bebd cb45 8f39 7996 97bb
00000140: 506d 3cbd 76b2 1a3d 3121 0e3d a59c 0c3d
00000150: 621d 533d af77 f33c 6bf0 983a cf6e 32bd
00000160: 66a6 24bc dbfa 113c dc76 d13d 1f46 e43d
00000170: 2474 d63d e302 223d be99 d0bd 0470 c0bb
00000180: 7467 743d ae27 f8bd 6614 af3d 99a8 123e
00000190: 2978 b13d 8ec7 c4bd 9150 f2bc f6b1 e4bc
000001a0: e5dd 163c 729b 2c3d b89b c43d f8c7 8f3d
000001b0: d7d1 72bc dc47 71bc eaec a3bd 5010 12bd
000001c0: 2acc bb3c 217e 9cbd be1e b1bc 4318 303d
000001d0: 7980 1c3c e994 663d d582 3b3c 99c4 72bd
000001e0: 1621 b43c 5470 a83c ef94 16bd 4c50 26ba
000001f0: 4c28 413c ddcb 043c cd27 2bbd 7418 29bd
00000200: fb6d ea3b 98dd 9c3d 506d 943d d917 c1bc
00000210: ed48 61bd 2df6 3ebc beae a63c 02e4 943d
00000220: b416 4fbc 182b 3b3d f00c a3bd 475c 3fbd
00000230: 0b3f 1dbd 9e3f bb3b 23c6 023d 266d 593d
00000240: 4313 263c 42ee aa3d 197a 1c3e bb76 5b3d
00000250: 06f5 1e3e 0cdc 153e 7a50 543d 007f 963c
00000260: d711 513d 8e3a 0bbd eef1 13bd 5c58 06be
00000270: 65c0 acbd c72c eebc 8456 bcbd ec3e a4bc
00000280: eead cb3c 52bf 16bb 936b c7bc ae90 b43d
00000290: ec4b fb3d 906a d23c f3e9 2dbd 8468 69bc
000002a0: 8c34 17bd b744 22be 7291 8cbc a9e5 80bc
000002b0: 6cd9 7c3c 9d10 68bd 91df 09bd efbd bebd
000002c0: c459 c8bc 70f9 80bd 4f29 adbc f2d7 96bc
000002d0: 531f 7dbd 213e d2bd 0dfc 41bd 97ae 58bd
000002e0: 75f2 6cbd 5cd3 f0bc 1e49 afbc a092 e4bc
000002f0: e6f5 91bb f6d4 35bd cf4d a5bd 80a2 a1bd
00000300: aea3 c1bd 8a39 7d3d 14cb 923c d5a2 9a3d
00000310: 68a4 4e3c 77bf 64bc 3ad1 2c3d 1644 aebd
00000320: d9f2 25bd b379 a73d 622c ae3c 10f7 27bd
00000330: 8520 1b3c 6b67 893d dcbf 153c 2658 73bd
00000340: 9a50 a2bc b574 143d ad70 34bd a267 a0bd
00000350: 8ede b7bd 3b81 f2bc aa07 973d 8d5b 82bd
00000360: cbbf e13d b572 173d b34e c9bd f3b4 05be
00000370: b137 febd 64a8 ef3c 1d45 f239 ac2f a83b
00000380: 5e0c a53d b130 4e3d f003 51bd 501a d9bd
00000390: 2945 65bd 3678 c13c b396 d73d 231f 08bc
000003a0: 74d4 a63a f681 813d c74c 0d3d 7b5c 26bd
000003b0: c621 b2bd 649b 383d fbc4 eb3d 828c 2d3d
000003c0: 5049 6c3c 6f58 963d 2373 6d3d a085 a03c
000003d0: 782d 4f3d 5082 e73d 803a 83bc d9ee 50bc
000003e0: c174 99bd bd6f d13c 03b7 87bc 5470 683d
000003f0: 7817 043e 5d7d e0bc 4410 eabc 7c85 47bd

full1.1.bias f4 [16]
0.009802284 0.014420473 0.052932512 0.0027292692 0.013071201 -0.0035597137 -0.015312317 0.026606616
0.044476338 0.0022762136 0.022353515 -0.005091113 -0.015113284 -0.0068515413 0.03385097 0.010563433
00000000: c299 203c d943 6c3c c3cf 583d 8add 323b
00000010: 9728 563c 164a 69bb 83e0 7abc 1ef6 d93c
00000020: d22c 363d 872c 153b b81e b73c 5ad3 a6bb
00000030: b59d 77bc e582 e0bb 51a7 0a3d 4012 2d3c

full2.1.weight f4 [2, 16]
-0.14056711 0.17198655 0.25143725 0.32951576 -0.00046411954 0.30801466 0.2586285 0.29274014
0.08495343 0.2701154 0.2780796 0.3563244 -0.05957557 0.011456004 0.14522704 0.18786338
0.16703247 -0.31136143 -0.21220641 -0.2775201 0.30319926 -0.028273476 -0.21441899 -0.10973678
-0.26249632 -0.17172284 -0.123995736 -0.067644686 0.25213698 0.2674589 -0.21405225 -0.19307573
00000000: d3f0 0fbe 3e1d 303e 62bc 803e 4ab6 a83e
00000010: 1255 f3b9 19b4 9d3e f46a 843e 09e2 953e
00000020: 10fc ad3d 914c 8a3e 7360 8e3e 2770 b63e
00000030: 8305 74bd f7b1 3b3c 66b6 143e 425f 403e
00000040: 8f0a 2b3e c46a 9fbe a34c 59be 1d17 8ebe
00000050: ef3c 9b3e c79d e7bc a790 5bbe adbd e0bd
00000060: eb65 86be 1dd8 2fbe 7af1 fdbd 4c89 8abd
00000070: 1918 813e 5ff0 883e 8330 5bbe a5b5 45be

full2.1.bias f4 [2]
-0.06858676 -0.17850094
00000000: 3777 8cbd f3c8 36be

exp_avg f4 [8, 3, 3, 3]
0.00085263647 0.00076585176 0.00076472765 0.00060177577 0.00039693285 0.0002586679 0.0006044973 0.00042829223
0.00011074217 0.000509441 0.000299708 0.00030245984 0.0001616387 -0.00016917971 -0.00031874952 0.00026985345
2.007973e-05 -0.0002617575 -0.000368676 -0.0006278536 -0.0007206388 -0.0006614705 -0.0010076279 -0.001209731
-0.00050267996 -0.00075473543 -0.0010726835 0.009351788 0.008568515 0.0069830655 0.009605612 0.009104431
0.008240421 0.008628684 0.008010016 0.007385944 0.010761398 0.009474039 0.0079824105 0.010112252
0.009172201 0.008270359 0.010659203 0.009694951 0.009338704 0.010923456 0.01003299 0.008642289
0.010332017 0.00982928 0.009068905 0.011488292 0.010751516 0.010270479 -0.035199884 -0.031769026
-0.022456044 -0.03818782 -0.033679735 -0.023766246 -0.039512374 -0.03431146 -0.026347501 -0.031478163
-0.02708112 -0.018018471 -0.03503152 -0.028739093 -0.018325303 -0.032698087 -0.026584841 -0.018150881
-0.012984364 -0.0066744373 0.0030613192 -0.016219353 -0.009067025 0.0015164474 -0.012323809 -0.0064245854
0.0021622612 0.00046936705 0.0004236744 0.00040077546 0.00037945266 0.00034223872 0.0002945009 0.0002615657
0.00023037796 0.00018823077 0.00025795138 0.00020192467 0.00014673303 0.00014816807 0.00011466229 0.00010458412
7.288541e-05 5.6140892e-05 3.9744602e-05 0.00013606486 6.735833e-05 4.424467e-05 4.7559337e-05 1.125046e-05
-2.6540125e-05 -3.2182976e-05 -7.37536e-05 -0.00010170212 -0.024476996 -0.021733627 -0.020349838 -0.012911166
-0.007945393 -0.0069307494 -0.004898694 0.0009794257 0.0061340807 -0.0047278567 -0.0024541307 0.00010563589
0.0061246636 0.011256178 0.012672774 0.012032623 0.019358566 0.023866953 -0.0057376684 -0.0020189518
0.001875319 0.0067764036 0.014001821 0.016624155 0.014916511 0.023343895 0.028889049 -0.009642843
-0.010142385 -0.009699923 -0.008908535 -0.009588348 -0.009300324 -0.008589684 -0.009107435 -0.009287125
0.006384431 0.0059748697 0.006499293 0.0070705456 0.006470276 0.0068828245 0.0077624517 0.0073363944
0.007252404 0.015032067 0.014686203 0.015085709 0.015682343 0.015081104 0.01529061 0.0164748
0.015994854 0.015854536 -0.052414287 -0.057796817 -0.060376987 -0.03706909 -0.04522014 -0.04991788
-0.021312943 -0.031076333 -0.03667869 -0.041958183 -0.04763344 -0.04964724 -0.027532278 -0.036356904
-0.040615432 -0.012733107 -0.02277593 -0.028762497 -0.046771146 -0.05324489 -0.05511433 -0.03324331
-0.042293616 -0.045701317 -0.016905146 -0.02742215 -0.03260977 0.004016121 0.003942455 0.003971741
0.004351219 0.004149039 0.0042032804 0.0046823113 0.004529525 0.0046262327 -0.0010664444 -0.0012898779
-0.0013304853 -0.0007688718 -0.0010976479 -0.001118829 -0.00042057203 -0.0007327013 -0.00068240607 -0.0030315893
-0.0033083102 -0.0032992505 -0.0028604376 -0.0032497544 -0.003241181 -0.0025816401 -0.0029400599 -0.0028753956
00000000: 7783 5f3a 71c3 483a 0178 483a 7dc0 1d3a
00000010: 6d1b d039 d19d 8739 2177 1e3a 698c e039
00000020: 403e e838 028c 053a 2022 9d39 7993 9e39
00000030: 8f7d 2939 d565 31b9 d61d a7b9 1e7b 8d39
00000040: e470 a837 7f3c 89b9 db4a c1b9 8b96 24ba
00000050: 40e9 3cba 8966 2dba 6212 84ba d68f 9eba
00000060: 48c6 03ba 70d9 45ba 4999 8cba 3e38 193c
00000070: f562 0c3c 33d2 e43b db60 1d3c c02a 153c
00000080: d502 073c 535f 0d3c 713c 033c ca05 f23b
00000090: 9350 303c 0039 1b3c a8c8 023c dcad 253c
000000a0: 0047 163c 6680 073c f0a3 2e3c 92d7 1e3c
000000b0: 5d01 193c 4cf8 323c 6961 243c 6398 0d3c
000000c0: 9f47 293c fd0a 213c bf95 143c 6439 3c3c
000000d0: 2027 303c 8345 283c c12d 10bd 3d20 02bd
000000e0: bdf5 b7bc d56a 1cbd c3f3 09bd 6eb1 c2bc
000000f0: bad7 21bd 2c8a 0cbd b7d6 d7bc 3fef 00bd
00000100: 3ad9 ddbc 799b 93bc 367d 0fbd 3f6e ebbc
00000110: f21e 96bc 6eee 05bd 74c8 d9bc 28b1 94bc
00000120: 5fbc 54bc 3db5 dabb 6aa0 483b 73de 84bc
00000130: dc8d 14bc 88c3 c63a cde9 49bc 5485 d2bb
00000140: b9b4 0d3b 6115 f639 9e20 de39 2c1f d239
00000150: 46f1 c639 816e b339 3e67 9a39 c122 8939
00000160: 9d91 7139 d05f 4539 a63d 8739 bebb 5339
00000170: 59dc 1939 905d 1b39 d976 f038 2c54 db38
00000180: 0eda 9838 d378 6b38 71b3 2638 a2ac 0e39
00000190: ba42 8d38 5a93 3938 737a 4738 5cc0 3c37
000001a0: 7ca2 deb7 35fc 06b8 2aac 9ab8 e948 d5b8
000001b0: fb83 c8bc b80a b2bc b4b4 a6bc 5b89 53bc
000001c0: 652d 02bc 571b e3bb 3985 a0bb 1360 803a
000001d0: 6600 c93b 23ec 9abb 7bd5 20bb d688 dd38
000001e0: 67b1 c83b d56b 383c 77a1 4f3c 7b24 453c
000001f0: db95 9e3c a184 c33c 0d03 bcbb 6450 04bb
00000200: 44cd f53a 980c de3b e567 653c 612f 883c
00000210: 6264 743c b23b bf3c baa8 ec3c 04fd 1dbc
00000220: 3f2c 26bc 6dec 1ebc 1bf5 11bc 7218 1dbc
00000230: 6360 18bc bfbb 0cbc 5a37 15bc 0729 18bc
00000240: 7d34 d13b d7c8 c33b 05f8 d43b 09b0 e73b
00000250: 9c04 d43b 5189 e13b 2a5c fe3b 2366 f03b
00000260: 93a5 ed3b 0f49 763c 669e 703c 0d2a 773c
00000270: 4278 803c bc16 773c 7785 7a3c 29f6 863c
00000280: a407 833c 5fe1 813c 5db0 56bd 5bbc 6cbd
00000290: dc4d 77bd c2d5 17bd c138 39bd b176 4cbd
000002a0: 7b98 aebc cb93 febc 653c 16bd 58dc 2bbd
000002b0: 481b 43bd e85a 4bbd 5f8b e1bc faea 14bd
000002c0: 5e5c 26bd 869e 50bc 9694 babc 549f ebbc
000002d0: 1a93 3fbd 5017 5abd 90bf 61bd 232a 08bd
000002e0: 123c 2dbd 4e31 3bbd a97c 8abc 6ba4 e0bc
000002f0: d291 05bd aa99 833b b62f 813b 6125 823b
00000300: ac94 8e3b a9f4 873b acbb 893b 136e 993b
00000310: 696c 943b a797 973b f0c7 8bba 1f11 a9ba
00000320: ae63 aeba 1d8e 49ba f4de 8fba aca5 92ba
00000330: 3980 dcb9 c012 40ba 7fe3 32ba a1ad 46bb
00000340: 3cd0 58bb 3d38 58bb 2e76 3bbb d5f9 54bb
00000350: fe69 54bb bc30 29bb 05ae 40bb 2271 3cbb

exp_avg_sq f4 [8, 3, 3, 3]
0.00030763808 0.0003105675 0.00031502964 0.0003013687 0.00030514094 0.000312177 0.00029244387 0.00029952134
0.00031247054 5.7e-05 5.741247e-05 6.0286304e-05 5.4558364e-05 5.5299453e-05 5.960304e-05 6.339091e-05
6.542752e-05 7.419386e-05 3.6130077e-05 3.6677982e-05 3.780705e-05 3.3734883e-05 3.4261662e-05 3.593669e-05
4.6818077e-05 4.6706562e-05 5.161852e-05 0.01484487 0.0146430675 0.01449022 0.012128044 0.011898016
0.011782799 0.009813992 0.009593986 0.009499958 0.019437999 0.019245645 0.019089472 0.016698673
0.016459448 0.016329996 0.01390778 0.013674783 0.013578042 0.020228231 0.020039223 0.019885954
0.01771819 0.017493537 0.017377915 0.015144348 0.014928043 0.01484901 0.06086589 0.059024278
0.057152435 0.07363979 0.06909648 0.066594355 0.08036351 0.07448364 0.07213327 0.051253416
0.05190866 0.054753136 0.05959324 0.059274215 0.060962345 0.063297726 0.06313088 0.06350837
0.058333147 0.05864351 0.06089214 0.06870163 0.068028904 0.0692757 0.07280886 0.07252218
0.07272246 1.15235225e-05 1.159623e-05 1.1560448e-05 1.06166935e-05 1.0651247e-05 1.0723123e-05 1.0443273e-05
1.0438149e-05 1.053064e-05 4.4399485e-06 4.3386667e-06 4.2734046e-06 4.161822e-06 4.009175e-06 3.9276056e-06
4.337422e-06 4.1436188e-06 4.046012e-06 4.7180793e-06 4.656786e-06 4.6192617e-06 4.3699692e-06 4.260531e-06
4.2364168e-06 4.425617e-06 4.288989e-06 4.2765196e-06 0.034549296 0.039003976 0.044632018 0.037436396
0.04106185 0.043909673 0.044317055 0.04525261 0.043838874 0.039598454 0.04146739 0.044313017
0.042256635 0.043723013 0.04491822 0.046362523 0.04623879 0.045516774 0.046361312 0.047803596
0.049663097 0.048364088 0.049415004 0.05012883 0.05138861 0.05124341 0.05065113 0.0013578109
0.0012707807 0.0012092495 0.0014625868 0.0013623327 0.0013144853 0.0017509888 0.0016464815 0.0016108472
0.0007407055 0.0007168654 0.00077398756 0.00083456765 0.0008115126 0.0008472844 0.0010440197 0.0010189237
0.0009994601 0.0017220441 0.0016960058 0.0017424001 0.0018067999 0.0017757628 0.0018002178 0.002014769
0.0019768511 0.001950341 0.039361313 0.03846957 0.037047606 0.039272755 0.037212357 0.03529929
0.038457945 0.035701487 0.034202598 0.040508658 0.0389571 0.03641891 0.03886366 0.035595346
0.032543484 0.037145868 0.032886337 0.030483177 0.039747607 0.038474504 0.03625945 0.03557305
0.032764826 0.03017515 0.032339897 0.028723408 0.02691253 0.00021726856 0.00021395463 0.00022094937
0.00022959194 0.00022559593 0.00023150444 0.00023434336 0.00022984776 0.00023722797 3.8463255e-05 3.6889218e-05
3.7954334e-05 2.9144558e-05 2.9512084e-05 2.9687675e-05 3.2005737e-05 3.281049e-05 3.3981338e-05 0.000104910956
0.00010615447 0.000107413296 9.519167e-05 9.858669e-05 9.811418e-05 9.914569e-05 0.000101790516 0.00010060312
00000000: 7c4a a139 aad3 a239 902a a539 0601 9e39
00000010: 53fb 9f39 b0ab a339 2753 9939 1309 9d39
00000020: 16d3 a339 4913 6f38 2cce 7038 eddb 7c38
00000030: 99d5 6438 56f1 6738 47fe 7938 bcf0 8438
00000040: 2236 8938 8698 9b38 608a 1738 afd6 1938
00000050: 0393 1e38 8e7e 0d38 2eb4 0f38 baba 1638
00000060: 875e 4438 cae6 4338 f780 5838 e637 733c
00000070: 7ae9 6f3c 6368 6d3c b4b4 463c e5ef 423c
00000080: a40c 413c deca 203c 1830 1d3c b6a5 1b3c
00000090: 703c 9f3c 0ba9 9d3c 8661 9c3c a8cb 883c
000000a0: f7d5 863c 7cc6 853c 75dd 633c 320c 603c
000000b0: 7076 5e3c adb5 a53c 4c29 a43c dee7 a23c
000000c0: bd25 913c 9b4e 8f3c 215c 8e3c 0020 783c
000000d0: c094 743c 4349 733c 834e 793d 71c3 713d
000000e0: ac18 6a3d 75d0 963d 7582 8d3d 9f62 883d
000000f0: a095 a43d e18a 983d 9cba 933d 1aef 513d
00000100: 2d9e 543d d344 603d 0b18 743d 85c9 723d
00000110: a7b3 793d 3da2 813d c34a 813d ad10 823d
00000120: bdee 6e3d 2d34 703d 096a 793d 71b3 8c3d
00000130: bd52 8b3d 6be0 8d3d d01c 953d 8286 943d
00000140: 83ef 943d 2755 4137 6e8d 4237 bff3 4137
00000150: 5a1e 3237 c2b2 3237 76e7 3337 8435 2f37
00000160: 821f 2f37 c1ac 3037 defa 9436 dd94 9136
00000170: 4464 8f36 c7a5 8b36 8d86 8636 e0c9 8336
00000180: 2c8a 9136 6a09 8b36 fac2 8736 fe4f 9e36
00000190: 7d41 9c36 28ff 9a36 c0a1 9236 aff5 8e36
000001a0: 8b26 8e36 c37f 9436 23ea 8f36 067f 8f36
000001b0: 9083 0d3d a2c2 1f3d 10d0 363d e856 193d
000001c0: 7830 283d a1da 333d cd85 353d cd5a 393d
000001d0: 6490 333d fd31 223d b6d9 293d 9181 353d
000001e0: 4b15 2d3d e716 333d 2bfc 373d a1e6 3d3d
000001f0: e364 3d3d cc6f 3a3d 5ce5 3d3d b4cd 433d
00000200: 886b 4b3d 6c19 463d 6367 4a3d e353 4d3d
00000210: dd7c 523d 9ce4 513d 8f77 4f3d 93f8 b13a
00000220: 5390 a63a ae7f 9e3a 45b4 bf3a 4d90 b23a
00000230: cf4a ac3a 6f81 e53a c0ce d73a 1023 d33a
00000240: e82b 423a 06ec 3b3a 6de5 4a3a e3c6 5a3a
00000250: b0bb 543a 4b1c 5e3a 7dd7 883a 688d 853a
00000260: 5100 833a 36b6 e13a 834c de3a 3f61 e43a
00000270: 25d2 ec3a b6c0 e83a 49f5 eb3a 370a 043b
00000280: 0f8e 013b 96a2 ff3a 5439 213d 4592 1d3d
00000290: 3bbf 173d 78dc 203d fc6b 183d fd95 103d
000002a0: 1486 1d3d b93b 123d 0618 0c3d 68ec 253d
000002b0: 7b91 1f3d ff2b 153d 802f 1f3d 6dcc 113d
000002c0: 514c 053d 4426 183d d3b3 063d dbb7 f93c
000002d0: 63ce 223d 7197 1d3d ca84 143d 0cb5 113d
000002e0: 6934 063d e031 f73c d776 043d 5a4d eb3c
000002f0: ab77 dc3c 96d2 6339 0259 6039 a5ae 6739
00000300: 9ebe 7039 f28d 6c39 00c0 7239 11ba 7539
00000310: 4a03 7139 66c0 7839 9b53 2138 7fb9 1a38
00000320: 2831 1f38 767b f437 b890 f737 cc09 f937
00000330: e63d 0638 ff9d 0938 2f87 0e38 a403 dc38
00000340: 3f9f de38 1343 e138 a4a1 c738 53c0 ce38
00000350: a6c2 cd38 70ec cf38 5e78 d538 e4fa d238

exp_avg f4 [8]
-0.003961995 -0.0061475514 -0.026852744 0.0002725139 -0.0031994649 -0.01865182 0.005816156 0.009952543
00000000: 9fd3 81bb 6671 c9bb 49fa dbbc 32e0 8e39
00000010: 1dae 51bb b4cb 98bc 7495 be3b fe0f 233c

exp_avg_sq f4 [8]
0.0013818186 0.0022655902 0.02082603 5.7464595e-06 0.056852665 0.0046016006 0.00040377476 0.0015116695
00000000: 231e b53a 4c7a 143b 5a9b aa3c b6d1 c036
00000010: 57de 683d 06c9 963b bbb1 d339 3623 c63a

exp_avg f4 [8]
-0.004472578 0.009902664 -0.0005940736 -0.022989893 0.001885926 -0.0014482846 -0.018092569 0.015605816
00000000: b48e 92bb c93e 223c 9bbb 1bba 4d55 bcbc
00000010: 2d31 f73a 5ed4 bdba de36 94bc 89af 7f3c

exp_avg_sq f4 [8]
0.00082700985 0.0016181536 0.0026413961 0.0033013236 0.00095991546 0.0035106856 0.0038178142 0.0073139053
00000000: b1cb 583a 3a18 d43a 461b 2d3b 055b 583b
00000010: d6a2 7b3a 8813 663b 4b34 7a3b 7ca9 ef3b

exp_avg f4 [8]
5.525439e-05 -0.0040931418 0.0041419696 -0.0068364497 -0.0028638963 -0.004164384 -0.0023509683 0.0017976427
00000000: f3c0 6738 c31f 86bb 5cb9 873b 4c04 e0bb
00000010: 35b0 3bbb 6375 88bb b412 1abb e19e eb3a

exp_avg_sq f4 [8]
0.0015541541 0.001556259 0.0002941137 0.0025573166 0.00021121683 0.0028656116 0.00043283592 0.007632418
00000000: c2b4 cb3a 63fb cb3a 4633 9a39 a798 273b
00000010: 167a 5d39 fccc 3b3b 41ee e239 5d19 fa3b
